ishtar/proprietary/odm/firmware/film_model.tflite (tflite, 11520 bytes, 10 tensors)

Const_1 f4 [16]
0	0x3c553198	0.013012312
1	0xbfc797e2	-1.5593226
2	0x3eaa25ad	0.3323187
3	0xbf72b9e5	-0.948149
4	0xbeb3bec4	-0.3510648
5	0xbfa5a975	-1.2942339
6	0xbeb6af1a	-0.35680467
7	0xc05a847d	-3.4143364
8	0xbf6d8857	-0.92786163
9	0xbf02c03d	-0.5107458
10	0xbcecb7c0	-0.028896213
11	0x3f9f647b	1.2452539
12	0xbf3c82e0	-0.736372
13	0xc002e800	-2.0454102
14	0xc005ee20	-2.092659
15	0x3ee1aa2a	0.44075137

Const_10 f4 [3]
0	0xbf5c265f	-0.8599605
1	0x3f53ea58	0.82779455
2	0xbe076063	-0.13220362

Const_3 f4 [16]
0	0xbea441ce	-0.32081455
1	0x4006ef5b	2.108359
2	0xc06ff82e	-3.7495227
3	0xbfc9b285	-1.5757605
4	0xc0b6170f	-5.690315
5	0x401f279c	2.4867926
6	0xbffa5884	-1.9558263
7	0x3f69e6f9	0.9136806
8	0xc0ab4d25	-5.353167
9	0x40afef2d	5.4979463
10	0xbfc334e7	-1.525052
11	0x3f6cb07c	0.92456794
12	0xc04ae066	-3.1699462
13	0xbfe20672	-1.7658217
14	0x3ee0e0a8	0.439214
15	0xc018eb48	-2.3893604

Const_5 f4 [16]
0	0xbeaa7ca4	-0.33298218
1	0xbe9d189b	-0.30682835
2	0xbef86e84	-0.48521817
3	0x3dae413c	0.08508536
4	0xbeab1e77	-0.3342168
5	0xbd9bf9b9	-0.0761599
6	0xbdb3e106	-0.08783154
7	0xbe93f1b9	-0.28895357
8	0xbdeb6238	-0.11493343
9	0xbf0dee6a	-0.55441916
10	0x3f062b72	0.5241004
11	0xbf8d119c	-1.1020999
12	0xbef4283c	-0.47686946
13	0xbe801388	-0.250149
14	0x3d04549a	0.032307245
15	0xbf8367e9	-1.0266086

Const_7 f4 [16]
0	0xbfb18fdf	-1.3872031
1	0x3edfe00e	0.43725628
2	0x3b092f92	0.0020932895
3	0xbcdd1a7a	-0.026990164
4	0x3f4580a9	0.77149445
5	0x3e862d72	0.26206547
6	0xbce731fc	-0.028222077
7	0x3daba26e	0.083805904
8	0xbe3422b7	-0.17591368
9	0xbc9b2655	-0.018939177
10	0x3d0496b8	0.0323703
11	0xbf0b61b3	-0.5444595
12	0x3ee4ee42	0.44713026
13	0x3f01386f	0.50476736
14	0xbd102d4e	-0.035199456
15	0x3e9b2fbb	0.30309853

MatMul f4 [3, 64]
0	0x3de8eb8a	0.113730505
1	0x3ea1c7a2	0.3159762
2	0x3e756521	0.23964359
3	0x3f1c3c5c	0.610296
4	0xbe5d2679	-0.21596707
5	0xbf9b64f9	-1.214019
6	0xbf580589	-0.84383446
7	0xbed227f0	-0.41046095
8	0x3f829e5d	1.0204579
9	0x3fdb99de	1.7156332
10	0x3f765a9b	0.96232
11	0x3fc0d406	1.5064704
12	0x3ea4d892	0.3219648
13	0x3ea58282	0.32326132
14	0x3e83f282	0.25770956
15	0x3ec290e0	0.38001156
16	0xbefa270c	-0.48857915
17	0xbf5be352	-0.8589374
18	0xbf60dee9	-0.87840134
19	0xbf61e64b	-0.88242024
20	0x3de5d49f	0.11222195
21	0x3e3b56e5	0.18294866
22	0xbdd0de49	-0.101986475
23	0x3e3f3718	0.1867336
24	0xbf9843f5	-1.1895739
25	0x3e96048b	0.2930034
26	0xbee0682a	-0.4382947
27	0xbf6e79bf	-0.9315452
28	0xbebc18ec	-0.36737764
29	0xbf6a684b	-0.9156539
30	0xbf516c37	-0.8180575
31	0xbf476f5f	-0.77904314
32	0x3f57f5c0	0.8435936
33	0xbe4ee64f	-0.20205043
34	0x3ef4af41	0.47789958
35	0xbf97a83c	-1.1848216
36	0x3f02905c	0.51001525
37	0x3e960fec	0.29309022
38	0x3e2639c9	0.16232981
39	0x3ee0bf66	0.43896025
40	0x3f587711	0.8455668
41	0x3f3189e9	0.6935106
42	0x3f27eb32	0.65593255
43	0x3f14b49e	0.580881
44	0x3f98207e	1.1884916
45	0x3f74f40b	0.9568488
46	0x3f51c9dc	0.8194864
47	0x3f1fcb42	0.6241952
48	0xbeea27f6	-0.45733613
49	0xbf81b775	-1.0134112
50	0xbf6a4d2c	-0.91524005
51	0xbf5aaab7	-0.8541674
52	0xbe56f6c4	-0.20992571
53	0xbf24d573	-0.643882
54	0xbec7152f	-0.3888335
55	0xbf0b6456	-0.54449975
56	0x3f2253c8	0.6340909
57	0x3ed8f487	0.4237406
58	0x3eaf1d77	0.34202167
59	0x3efdec1c	0.495942
60	0x3ec53fe6	0.38525313
61	0x3ed138cf	0.40863654
62	0x3e1a4e17	0.15068851
63	0x3ef105ac	0.4707464
64	0x3f2e8980	0.6817856
65	0x3e44e21e	0.19226882
66	0x3f1e10df	0.61744493
67	0xbe32d8e7	-0.17465554
68	0x3d97c2e6	0.07410221
69	0xbde3571e	-0.11100601
70	0x3e56f361	0.20991279
71	0xbe1987dd	-0.14993234
72	0xbf9ca14b	-1.2236723
73	0xbf8bd889	-1.0925456
74	0xbf81ed6d	-1.0150582
75	0xbf879605	-1.0592657
76	0x3df0c62d	0.11756549
77	0x3eb20d93	0.3477598
78	0x3e9e77df	0.3095083
79	0x3cdc8c44	0.026922353
80	0x3d0fb26b	0.035082262
81	0x3de639eb	0.11241516
82	0x3e6afeff	0.22948836
83	0x3f051518	0.5198531
84	0x3cfcbe2c	0.0308524
85	0x3eca825d	0.39552584
86	0x3de33142	0.110933796
87	0x3e8cae83	0.27476892
88	0x3fa75ec1	1.3075792
89	0xbb5ec20a	-0.0033990168
90	0xbf290677	-0.6602549
91	0x3edfdff5	0.43725553
92	0xbef01ce6	-0.46897048
93	0x3d15ee6a	0.036604322
94	0xbe33b03c	-0.17547697
95	0x3e0bd993	0.13657217
96	0xbf475bf9	-0.77874714
97	0x3e3620d8	0.17785966
98	0x3ee583a5	0.44827
99	0x3f65685f	0.8961238
100	0x3e6da767	0.2320839
101	0x3e3764be	0.17909524
102	0x3e9030b6	0.28162163
103	0xbe1ba431	-0.15199353
104	0xbf1bdc9c	-0.608835
105	0xbe6c1134	-0.23053437
106	0xbec03bae	-0.37545532
107	0xbe3bd8aa	-0.1834437
108	0xbf932b3a	-1.1497567
109	0xbf758465	-0.95905143
110	0xbf4ac1a3	-0.79201716
111	0xbf0dda12	-0.55410874
112	0xbe152098	-0.14563215
113	0xbd57e606	-0.0527096
114	0xbcca76e6	-0.024714898
115	0xbd86132d	-0.06546626
116	0x3e2373bf	0.15962122
117	0x3e5b98bb	0.21444981
118	0x3de71b3b	0.11284491
119	0x3e8aeced	0.27133885
120	0xbe492481	-0.19642831
121	0x3d520555	0.051274616
122	0xbd6dbde8	-0.058042437
123	0xbdd82bb7	-0.10555213
124	0x3dba6da8	0.091029465
125	0x3e9ddf27	0.30834314
126	0x3e6c6e5a	0.23088971
127	0x3e1eca60	0.15506887
128	0xc0337290	-2.8038673
129	0xbfe3ec8c	-1.7806563
130	0xc0033586	-2.0501418
131	0xbfe2a562	-1.7706721
132	0x3e7bc842	0.24588111
133	0x3f97d990	1.186327
134	0x3f22df15	0.63621646
135	0x3f5cba9c	0.86222243
136	0x3f5e3d4f	0.868123
137	0xc03b6ef5	-2.9286473
138	0x3f6f852d	0.93562585
139	0xc02ae5c4	-2.6702738
140	0xbf9e5ddf	-1.2372397
141	0xc03894d8	-2.8840847
142	0xbf5cdc4a	-0.86273634
143	0xc00c32ad	-2.190593
144	0x3f36eb80	0.71453094
145	0x3f310bdd	0.69158727
146	0x3f31090c	0.6915443
147	0x3f1acad9	0.6046577
148	0xbe95f2cd	-0.29286805
149	0xc026ab7b	-2.6042163
150	0xbea056ce	-0.31316227
151	0xc00af3f3	-2.1711395
152	0xbf241107	-0.6408848
153	0xbe9b98f9	-0.30390146
154	0x3f74bada	0.9559761
155	0x3f0dce74	0.5539315
156	0x3f4449f6	0.76675355
157	0x3f85f0c7	1.0464104
158	0x3f8b51cb	1.0884336
159	0x3f3dbaf3	0.74113387
160	0x3f0278f1	0.5096579
161	0xbe640660	-0.22268057
162	0xbf94cebf	-1.1625594
163	0x3e79e5d1	0.24404074
164	0xc0001bd1	-2.0016978
165	0xc00645bc	-2.0980062
166	0xbfc32d2a	-1.5248158
167	0xbffe2343	-1.9854511
168	0x3ec5b7d9	0.38616827
169	0xc02d4840	-2.7075348
170	0xbe433233	-0.19062118
171	0xc02be33a	-2.6857438
172	0x3f306eac	0.6891887
173	0x3f6630ec	0.899184
174	0x3d8544f4	0.065072924
175	0xbdb6d962	-0.08928181
176	0x3ef177b6	0.47161645
177	0x3f923978	1.1423788
178	0x3f1b013b	0.6054875
179	0x3f60768b	0.8768088
180	0x3eacff25	0.3378841
181	0x3eea138e	0.45718044
182	0x3e87656e	0.26444572
183	0x3e4ec424	0.20192009
184	0xbf6442fb	-0.89164704
185	0xc0005811	-2.0053751
186	0xbf5a11ca	-0.85183394
187	0xc007624e	-2.115375
188	0xbf1bdd5b	-0.60884637
189	0xc010329c	-2.253089
190	0xbefc221d	-0.49244776
191	0xc005b6af	-2.0892751

convolution f4 [16, 3, 3, 1]
0	0x3aa63557	0.0012680691
1	0xb9a05242	-0.00030578865
2	0xbaec6c86	-0.0018037714
3	0xbaf50ef6	-0.0018696475
4	0xbb6e3ac8	-0.0036350954
5	0xbb3e522b	-0.0029040675
6	0xbafba6d9	-0.0019199505
7	0xbab3e983	-0.0013726208
8	0xbb1e5c48	-0.002416389
9	0x3b2f46cc	0.002674508
10	0x396b9e81	0.00022470394
11	0x3b5ce2fb	0.0033704627
12	0xba002e12	-0.00048896775
13	0x3b4d6230	0.0031339042
14	0xbba2a2f2	-0.0049632723
15	0xbb8cb05e	-0.0042934855
16	0xbb9bd9de	-0.0047561964
17	0x3b179a34	0.0023132684
18	0xba75ebba	-0.00093811343
19	0x3a553063	0.00081325154
20	0x39ea60d4	0.000447041
21	0xbb39bb91	-0.0028340558
22	0xbb8cc0ce	-0.004295445
23	0x39572c8d	0.00020520594
24	0x3a7602b7	0.000938456
25	0xb9d466ad	-0.0004051229
26	0xbb44094a	-0.0029912763
27	0x3b4fbfaf	0.0031699946
28	0xbc277b32	-0.010222243
29	0x3b96daaa	0.0046037035
30	0xbaa813c7	-0.0012823277
31	0x3b1dce67	0.0024079324
32	0xba085e0a	-0.0005202001
33	0xba2c6617	-0.0006576492
34	0x3b5ca7d6	0.0033669374
35	0xbc1fc393	-0.009751218
36	0xbb177708	-0.002311172
37	0x3a83e1c1	0.0010061787
38	0x3a80c684	0.0009824787
39	0xbae21b01	-0.001725048
40	0xba88bf9c	-0.0010433081
41	0x3b39919b	0.0028315547
42	0xbb0d6ddc	-0.0021580374
43	0xbb940005	-0.004516604
44	0xbb5e40a4	-0.003391304
45	0xbb804db1	-0.0039155115
46	0xbbf5b96e	-0.0074989116
47	0x3aaecb10	0.0013335664
48	0xbb6a2ab6	-0.0035731024
49	0xbc031a5f	-0.008001893
50	0x3b08a4c9	0.0020850173
51	0x39adf06a	0.00033176254
52	0x3b18c0c9	0.0023308268
53	0x3a742b3b	0.0009314303
54	0x3a03e534	0.00050314073
55	0xba593014	-0.0008285057
56	0xbab5dc09	-0.001387478
57	0x38eb4c23	0.00011219855
58	0x3ab470e0	0.001376655
59	0x3741fe68	1.156293e-05
60	0xb9e78bdb	-0.00044163954
61	0xbc2c04e1	-0.01049921
62	0xbab79576	-0.0014006335
63	0xbb35f85e	-0.0027766447
64	0x3be0f255	0.0068648257
65	0xbb424dee	-0.00296485
66	0xb8d107b8	-9.967334e-05
67	0xbb118f0c	-0.0022210507
68	0x3a477bda	0.0007609703
69	0x3b8e950c	0.004351264
70	0x3a2d21b4	0.00066044484
71	0xbb4f0226	-0.0031586974
72	0xbb6ff605	-0.0036615145
73	0x3b160eac	0.0022896929
74	0xbb41971e	-0.0029539536
75	0xbc4d8f16	-0.012546321
76	0x3b43245e	0.0029776315
77	0x3b76ff72	0.0037688878
78	0x3a941dd0	0.0011300389
79	0xbb339d5c	-0.0027407026
80	0xbb34bea8	-0.002757946
81	0xbabed0d1	-0.0014558082
82	0xbba78f83	-0.0051135435
83	0x3b268b4f	0.0025412624
84	0x3b85bec7	0.0040815803
85	0x3b57b7dc	0.0032915985
86	0xbb3115b0	-0.0027020983
87	0xbacb3ef9	-0.0015506438
88	0xbba264a1	-0.0049558436
89	0x3b6f8586	0.0036548092
90	0xbb93e446	-0.0045132963
91	0xbb3e405d	-0.0029030063
92	0xbb935651	-0.0044963737
93	0xb7f45823	-2.9128109e-05
94	0xba859213	-0.0010190628
95	0xbb20a2e9	-0.0024511165
96	0x39199c4a	0.00014649439
97	0xba71ed3a	-0.000922877
98	0xba828690	-0.0009958316
99	0xbae0e3b5	-0.0017157706
100	0xbaa5793c	-0.0012624632
101	0xbac698eb	-0.0015151774
102	0xba055b08	-0.0005087112
103	0x38cbc3ac	9.716241e-05
104	0xba38dc1f	-0.00070518436
105	0xb9d9d2ef	-0.00041546623
106	0xbac2a23f	-0.0014849378
107	0xbac2e85f	-0.0014870277
108	0x3aa3bc29	0.0012491989
109	0xbc111133	-0.008854198
110	0xbbdd756f	-0.006758384
111	0x3ac88413	0.001529815
112	0xbb16edd4	-0.002302994
113	0x3b3dfed0	0.0028990991
114	0xbb4e54fa	-0.0031483755
115	0x3b2aa40d	0.0026037723
116	0xba568d16	-0.00081844756
117	0xb9a5d53a	-0.0003163012
118	0xb9b77cfa	-0.00034997595
119	0xbbc05539	-0.0058695343
120	0xbb6c7a41	-0.0036083611
121	0xbbbf4bd7	-0.0058378982
122	0x39e822b0	0.00044276332
123	0xbbc0cfa1	-0.0058841263
124	0x3ad1ea9b	0.0016015352
125	0x3b7eaf82	0.0038861935
126	0xb9cefde8	-0.00039480557
127	0x39857b2c	0.00025459507
128	0xbaad131a	-0.0013204545
129	0x3b228524	0.0024798596
130	0x3a8df1db	0.0010829525
131	0x3b03b051	0.0020094106
132	0xba40e086	-0.00073576753
133	0xbaaa3897	-0.0012986836
134	0x3b215b24	0.0024620974
135	0x3af7bca4	0.0018900824
136	0xbb0acd5c	-0.0021179533
137	0xbac80483	-0.0015260134
138	0xbb6a1bd3	-0.003572215
139	0x3a4b6588	0.0007758965
140	0x399e0f61	0.00030147567
141	0xba987746	-0.0011632226
142	0x3b210307	0.0024568455
143	0xbb390413	-0.0028231188

convolution_1 i1 [16, 3, 3, 16]
0	0xd4	-44
1	0x11	17
2	0xf6	-10
3	0x13	19
4	0x29	41
5	0xfb	-5
6	0x0a	10
7	0xf9	-7
8	0xdc	-36
9	0x07	7
10	0xf5	-11
11	0xf5	-11
12	0xe4	-28
13	0x06	6
14	0xfc	-4
15	0xdd	-35
16	0x0b	11
17	0x03	3
18	0xf6	-10
19	0x27	39
20	0xf6	-10
21	0xba	-70
22	0xc9	-55
23	0x24	36
24	0xc3	-61
25	0x00	0
26	0x33	51
27	0xc5	-59
28	0xe7	-25
29	0x14	20
30	0xe1	-31
31	0x01	1
32	0x0a	10
33	0x21	33
34	0xfb	-5
35	0x1b	27
36	0x14	20
37	0x18	24
38	0xf5	-11
39	0x02	2
40	0xec	-20
41	0x07	7
42	0x02	2
43	0xdb	-37
44	0x3c	60
45	0x2f	47
46	0x01	1
47	0x0b	11
48	0x0d	13
49	0x19	25
50	0xcb	-53
51	0xc7	-57
52	0xdb	-37
53	0xb0	-80
54	0xe5	-27
55	0x28	40
56	0xb8	-72
57	0x26	38
58	0xe2	-30
59	0x0b	11
60	0xe0	-32
61	0x29	41
62	0x06	6
63	0x2a	42
64	0x06	6
65	0x1b	27
66	0x35	53
67	0x01	1
68	0xf3	-13
69	0xba	-70
70	0x15	21
71	0x23	35
72	0x0c	12
73	0x07	7
74	0x02	2
75	0x06	6
76	0xf9	-7
77	0x20	32
78	0x02	2
79	0x0d	13
80	0x26	38
81	0x27	39
82	0xfa	-6
83	0xf0	-16
84	0xc6	-58
85	0xf5	-11
86	0x16	22
87	0xf4	-12
88	0xf5	-11
89	0xf0	-16
90	0x0d	13
91	0x19	25
92	0x2a	42
93	0x19	25
94	0x04	4
95	0xf1	-15
96	0xe8	-24
97	0xef	-17
98	0x06	6
99	0xfb	-5
100	0x00	0
101	0x81	-127
102	0xfd	-3
103	0x43	67
104	0xdc	-36
105	0x20	32
106	0xdc	-36
107	0x01	1
108	0xf6	-10
109	0x94	-108
110	0x03	3
111	0x13	19
112	0x33	51
113	0x13	19
114	0x06	6
115	0x07	7
116	0x0e	14
117	0x1e	30
118	0x32	50
119	0xe3	-29
120	0x03	3
121	0x16	22
122	0x11	17
123	0x20	32
124	0x0b	11
125	0x11	17
126	0x28	40
127	0x15	21
128	0xe2	-30
129	0xe8	-24
130	0x14	20
131	0xf0	-16
132	0xce	-50
133	0x22	34
134	0x14	20
135	0x38	56
136	0xfe	-2
137	0x09	9
138	0xef	-17
139	0xf9	-7
140	0xff	-1
141	0x06	6
142	0xe1	-31
143	0x0e	14
144	0x25	37
145	0x0c	12
146	0x23	35
147	0xea	-22
148	0x13	19
149	0x2a	42
150	0x06	6
151	0x9a	-102
152	0x15	21
153	0x0a	10
154	0xf3	-13
155	0xfd	-3
156	0xcf	-49
157	0x3a	58
158	0xf5	-11
159	0x05	5
160	0x25	37
161	0xeb	-21
162	0x07	7
163	0xe0	-32
164	0xd7	-41
165	0xf4	-12
166	0x09	9
167	0x14	20
168	0xc2	-62
169	0xfb	-5
170	0x04	4
171	0x1f	31
172	0xdd	-35
173	0x04	4
174	0xca	-54
175	0xfb	-5
176	0x24	36
177	0xc2	-62
178	0xd7	-41
179	0x03	3
180	0xf3	-13
181	0xf6	-10
182	0x12	18
183	0x81	-127
184	0x0d	13
185	0xf5	-11
186	0x2f	47
187	0xd4	-44
188	0xf0	-16
189	0x0a	10
190	0xdb	-37
191	0xd8	-40
192	0x19	25
193	0xd1	-47
194	0x20	32
195	0x06	6
196	0x1f	31
197	0x1c	28
198	0xd2	-46
199	0xf2	-14
200	0x3e	62
201	0x02	2
202	0x2d	45
203	0x3a	58
204	0x0e	14
205	0x0a	10
206	0xe8	-24
207	0xf8	-8
208	0x1f	31
209	0x1f	31
210	0x05	5
211	0x02	2
212	0xe2	-30
213	0x31	49
214	0x29	41
215	0xe1	-31
216	0x1c	28
217	0x0d	13
218	0xf9	-7
219	0x11	17
220	0xdf	-33
221	0xee	-18
222	0x08	8
223	0xdd	-35
224	0x08	8
225	0xf4	-12
226	0xfe	-2
227	0xd3	-45
228	0xc2	-62
229	0xf0	-16
230	0x33	51
231	0xf5	-11
232	0xdd	-35
233	0x04	4
234	0xff	-1
235	0xeb	-21
236	0xbc	-68
237	0x08	8
238	0x05	5
239	0xd9	-39
240	0x16	22
241	0xf3	-13
242	0x06	6
243	0x0d	13
244	0x0f	15
245	0x4a	74
246	0xee	-18
247	0x05	5
248	0xfd	-3
249	0xe6	-26
250	0x02	2
251	0xd7	-41
252	0xdf	-33
253	0x05	5
254	0xf3	-13
255	0xdf	-33

convolution_2 f4 [16, 1, 1, 16]
0	0xbd5bd525	-0.053670067
1	0x3eeb9652	0.46013123
2	0xbf0deb9b	-0.5543763
3	0xbf484f39	-0.78245884
4	0xbf3d1831	-0.7386504
5	0x3dba3570	0.09092224
6	0xbeac0f44	-0.33605397
7	0x3f38557d	0.72005445
8	0xbe27571c	-0.16341823
9	0x3f6db147	0.9284863
10	0xbf2f74d5	-0.68537647
11	0xbe71c97a	-0.23612013
12	0xbf55dd95	-0.8354123
13	0xbf47fcf5	-0.78120357
14	0x3edfbff0	0.43701124
15	0xbe839b93	-0.2570463
16	0x3deb9114	0.11502281
17	0x3e1c49e6	0.15262565
18	0xbec7a558	-0.38993335
19	0xbf232559	-0.63728863
20	0xbe56d5a1	-0.2097993
21	0xbf10a19d	-0.564966
22	0xbf590b78	-0.84783125
23	0x3ef8d960	0.48603344
24	0xbe724a4e	-0.23661157
25	0x3f7e5656	0.9935049
26	0xbe51e0b8	-0.2049588
27	0xbec3a6f9	-0.38213328
28	0xbe9390a7	-0.28821298
29	0xbd853023	-0.06503322
30	0xbe18ac94	-0.14909583
31	0xbb93b36b	-0.0045074723
32	0x3e73f478	0.23823726
33	0x3e4c7301	0.19965746
34	0x3e682646	0.2267085
35	0x3f2c9085	0.6740802
36	0x3f3710f8	0.7151027
37	0xbeb88e30	-0.3604598
38	0xbff4d318	-1.9126921
39	0x3e297948	0.16550171
40	0xbed19f8d	-0.4094204
41	0x3e5ea8df	0.21744107
42	0x3f10290a	0.5631262
43	0xbfc86d64	-1.5658383
44	0x3e5071e7	0.2035595
45	0x3ec27822	0.3798228
46	0xbee7732c	-0.45205057
47	0x3f0dca7f	0.5538711
48	0x3dea6e99	0.11446876
49	0x3f044606	0.5166935
50	0xbe6d96a9	-0.23202004
51	0xbf18a015	-0.59619266
52	0xbed11db9	-0.4084299
53	0xbe9214b4	-0.2853142
54	0xbe75fe41	-0.24022771
55	0x3f2fe81d	0.6871355
56	0xbee7b277	-0.45253345
57	0x3f514ac8	0.8175473
58	0xbe7a8fbe	-0.24468896
59	0xbe86e6bc	-0.2634791
60	0xbd6581f5	-0.05603214
61	0x3eebc47e	0.4604835
62	0xbeec9c7a	-0.46213132
63	0x3d86bc4e	0.06578885
64	0xbec6f6d4	-0.3886019
65	0xbfd62b97	-1.6732053
66	0x3f54145e	0.8284358
67	0x3e5a6e1b	0.21331064
68	0x3f2a99b2	0.6664077
69	0x3f74068c	0.9532249
70	0x3f0a6491	0.540597
71	0xbc6dfe7e	-0.014526008
72	0xbf23fbcc	-0.64056087
73	0xbe99ed05	-0.30063644
74	0x3f2cac6e	0.67450607
75	0x3f28234d	0.65678865
76	0x3f24b2eb	0.6433551
77	0x3f459f63	0.7719633
78	0x3bb00cdb	0.0053726262
79	0xbef95ebd	-0.48705092
80	0x3ca425a4	0.02003748
81	0x3f1fca33	0.62417907
82	0xbf501313	-0.81279105
83	0xbf3c6455	-0.73590595
84	0xbf81b0b0	-1.0132046
85	0xbdb175c2	-0.08665039
86	0xbee9ec69	-0.4568818
87	0x3f1692ed	0.5881794
88	0xbf2efd7c	-0.68355536
89	0x3f45ae92	0.772195
90	0xbf9fc0dc	-1.2480731
91	0xbe63b099	-0.22235335
92	0xbf846523	-1.0343364
93	0xbf80f9aa	-1.0076191
94	0x3f8f2631	1.118353
95	0x3e7172bd	0.23578925
96	0x3e34a0c0	0.17639446
97	0x3e995cf7	0.2995374
98	0x3e29de20	0.1658864
99	0xbf00db76	-0.5033487
100	0xbe7ae170	-0.2450006
101	0xbefc2813	-0.49249324
102	0xbf4f8a50	-0.81070423
103	0x3f333515	0.7000287
104	0xbf0e7044	-0.55640054
105	0x3f4b2eef	0.7936849
106	0xbe3cf633	-0.18453293
107	0xbf2b7af9	-0.66984516
108	0x3d4291d8	0.04750237
109	0x3d8c964f	0.068646066
110	0xbe141da5	-0.14464433
111	0x3e431845	0.19052227
112	0xbdedbb72	-0.11608018
113	0x3dc32a8a	0.09529598
114	0xbefe86cb	-0.49712214
115	0x3f0048e0	0.501112
116	0xbe40ac72	-0.18815783
117	0xbd2ff435	-0.042957503
118	0x3e833a72	0.25630528
119	0xbe901c07	-0.28146383
120	0xbe2e385a	-0.17013684
121	0x3f55ea49	0.83560616
122	0xbd4e53e8	-0.050372988
123	0x3daf3cb2	0.085564986
124	0x3fa86196	1.3154781
125	0xbf91bd04	-1.1385808
126	0x3ef9ddef	0.48802134
127	0xbe69c532	-0.2282913
128	0x3c861d9b	0.016371539
129	0x3f1815ad	0.59408075
130	0x3f0607ae	0.5235547
131	0xbf121a69	-0.5707155
132	0xbde62804	-0.11238101
133	0xbf26cc55	-0.65155536
134	0xbe12641e	-0.14296004
135	0x3f9cc7b9	1.224845
136	0xbea845bd	-0.32865706
137	0x3f5a959e	0.8538455
138	0x3dccff06	0.10009579
139	0x3e124d7a	0.14287367
140	0x3ddebe1d	0.10876105
141	0x3fa431df	1.282772
142	0xbd8d2340	-0.06891489
143	0xbe9f885f	-0.3115873
144	0xbe3d45d3	-0.18483667
145	0xbf6ce471	-0.92536074
146	0x3e82876e	0.2549395
147	0x3ee68964	0.45026696
148	0x3f0f05da	0.55868304
149	0x3f3c954a	0.736653
150	0x3f74673c	0.95470023
151	0xbf120bc2	-0.5704919
152	0xbd05d1c1	-0.03267074
153	0x3d956c0d	0.07296
154	0xbea67fc5	-0.32519355
155	0x3e5d554f	0.21614574
156	0x3fb9b1fa	1.4507439
157	0xbfa3d24c	-1.2798553
158	0x3f3fa3a2	0.7485906
159	0xbe849f8e	-0.2590298
160	0x3d3eca10	0.04657942
161	0x3ed81d38	0.42209792
162	0xbf04c8de	-0.51869
163	0xbf21fa9f	-0.6327304
164	0xbf4753fc	-0.77862525
165	0xbecf8228	-0.4052899
166	0x3ea5b2f7	0.32363102
167	0x3e86acfc	0.26303852
168	0xbead309a	-0.33826143
169	0x3f748512	0.9551555
170	0xbf80c481	-1.0059968
171	0xbe5c0838	-0.2148751
172	0xbd9f4d79	-0.077784486
173	0xbeb1903e	-0.3468036
174	0x3e61a9a1	0.22037365
175	0xbe591f37	-0.21203314
176	0xbf4607e9	-0.7735582
177	0xbf5bafb9	-0.85815006
178	0x3f7ddf0e	0.9916848
179	0x3ee85a2d	0.453813
180	0x3e8af040	0.2713642
181	0x3f86a1c1	1.0518113
182	0x3e67eec1	0.22649671
183	0xbe4cdb5e	-0.20005557
184	0xbf94dd79	-1.1630088
185	0xbe922f3a	-0.28551656
186	0x3f50a8f7	0.8150782
187	0x3f029f7e	0.51024616
188	0x3ee549e6	0.44782943
189	0x3e438468	0.19093478
190	0x3f305731	0.68883044
191	0xbf1581da	-0.5840126
192	0xbf39d3bd	-0.7258871
193	0xbfa2af29	-1.2709705
194	0x3f31f2d1	0.69511133
195	0x3f413f29	0.75487
196	0x3f2e31fa	0.6804501
197	0x3eae1bca	0.34005576
198	0x3f199472	0.59992135
199	0xbe2077b0	-0.15670657
200	0xbf571da8	-0.84029627
201	0xbe574df8	-0.21025836
202	0x3f34795c	0.7049768
203	0x3f51157e	0.8167342
204	0x3f1beefc	0.60911536
205	0x3f2b46fa	0.66905177
206	0x3f79a6d8	0.9752021
207	0xbf4bccaa	-0.7960917
208	0x3df3cdd2	0.119044915
209	0x3edb244e	0.42801136
210	0x3da8c88a	0.08241375
211	0xbf167ba4	-0.5878241
212	0x3df103c1	0.11768294
213	0xbfb3a83a	-1.4035714
214	0xbee66fb4	-0.45007098
215	0x3f3410aa	0.7033793
216	0xbf4ae19d	-0.7925051
217	0x3edb9cad	0.42892972
218	0x3dc45e4e	0.095883
219	0xbdc7af77	-0.09750264
220	0x3deb2638	0.11481899
221	0x3f3a43e9	0.7275987
222	0xbf1ce925	-0.6129325
223	0x3de52679	0.11188979
224	0xbeed1811	-0.46307424
225	0xbfc42fd2	-1.5327094
226	0x3dba884f	0.0910803
227	0x3e831e50	0.25609064
228	0x3ef0235a	0.4690197
229	0x3f8501f9	1.0391227
230	0x3d1ccbab	0.03828017
231	0xbe8ae87a	-0.2713049
232	0xbe1b470b	-0.1516382
233	0xbef90921	-0.48639777
234	0x3ecd1796	0.40057057
235	0x3f75e547	0.96052974
236	0x3ecbc352	0.39797455
237	0x3f18a2a5	0.59623176
238	0x3ec6ddf0	0.388412
239	0xbf510937	-0.81654686
240	0xbf73791d	-0.9510668
241	0xbf3862b9	-0.7202564
242	0x3f71cfe2	0.9445783
243	0x3f67b210	0.90506077
244	0x3efd81ba	0.49513036
245	0x3d33a477	0.043858018
246	0x3f26727c	0.6501844
247	0xbeb55043	-0.35412797
248	0xbfa2eef5	-1.2729174
249	0xbdf2e4c5	-0.118600406
250	0x3f07c232	0.53030694
251	0x3f1e2d8d	0.61788255
252	0x3e6e249b	0.23256151
253	0xbed3dbcd	-0.41378632
254	0x3f392c32	0.7233306
255	0xbf9027de	-1.1262167

convolution_3 f4 [16, 1, 1, 16]
0	0x3d9355db	0.0719411
1	0xbdf9e681	-0.12202168
2	0xbf4c8231	-0.79886156
3	0x3d9fc5b5	0.078013815
4	0x3f5fa427	0.8735985
5	0xbec6868b	-0.38774523
6	0x3e8ab028	0.27087522
7	0xbf3a25ce	-0.72713935
8	0x3f2882c0	0.6582451
9	0xbf549b6d	-0.8304966
10	0xbd049385	-0.032367248
11	0x3fba0331	1.4532224
12	0x3fb315f7	1.3991078
13	0x3f263d5a	0.64937365
14	0xbec65a62	-0.38740832
15	0x3fd92b6c	1.6966376
16	0x3fd53a05	1.6658331
17	0x3f50f0b4	0.81617284
18	0xbea48ac0	-0.32137108
19	0x3eed9d0e	0.46408886
20	0xbee3fec7	-0.44530317
21	0x3ff712f1	1.9302655
22	0x3f1c9de1	0.61178404
23	0x3ee82a18	0.45344615
24	0x3f097341	0.5369149
25	0xbf28c10c	-0.65919566
26	0x3f4cca50	0.79996204
27	0xbf47409b	-0.77832955
28	0xbec36416	-0.38162297
29	0x3f36d0c8	0.71412325
30	0xbf119e74	-0.56882405
31	0xbf299b50	-0.66252613
32	0xbf887688	-1.0661173
33	0xbf6bea6a	-0.9215456
34	0xbf3121bd	-0.69192106
35	0xbf37d353	-0.7180683
36	0x3e05837c	0.13038439
37	0x3eb59aa2	0.35469538
38	0xbf21cba9	-0.63201386
39	0x3f164dd6	0.5871252
40	0xbfa37ce7	-1.2772492
41	0x3fec9ce4	1.8485379
42	0xbe283725	-0.16427286
43	0x3d871884	0.06596473
44	0x3f0d5a87	0.5521626
45	0xbf6d4f4a	-0.9269911
46	0x3d0a8af1	0.03382391
47	0x3fc8bd42	1.5682757
48	0xbf59fa83	-0.85147876
49	0x3d3314af	0.043720897
50	0xbf80cf7d	-1.006332
51	0x3e0db304	0.1383782
52	0x3f6ecfb3	0.93285674
53	0xbf41ea65	-0.7574828
54	0xbe04f4ed	-0.12984057
55	0xbf201fe7	-0.6254868
56	0x3f151d0e	0.5824746
57	0x3e5fa3f3	0.21839885
58	0xbdb58e49	-0.08865029
59	0x3f59ca40	0.85074234
60	0x3f65fc52	0.89838135
61	0x3f3cc0b2	0.7373153
62	0x3f695a82	0.9115373
63	0x3f9031dd	1.1265217
64	0x3f57693e	0.8414496
65	0x3ebc7a50	0.36812067
66	0x3e6bcc1a	0.23027077
67	0x3f104bfd	0.5636595
68	0xbdf47b0a	-0.1193753
69	0x3f6b56ed	0.91929513
70	0x3f16259d	0.58651143
71	0x3e159402	0.14607242
72	0x3f8447b8	1.0334387
73	0xbe624dad	-0.22099943
74	0x3ef80e88	0.48448586
75	0xbf1003fc	-0.5625608
76	0xbf00a845	-0.5025676
77	0x3f5bc74b	0.8585097
78	0x3e8526bb	0.26006112
79	0xbf6c67d1	-0.9234591
80	0xbf85da95	-1.0457331
81	0xbd1f010c	-0.038819358
82	0xbf5d038e	-0.8633355
83	0x3e2662c6	0.16248617
84	0x3f9cb6b2	1.2243254
85	0xbf7655a7	-0.96224445
86	0x3e94eb6b	0.2908586
87	0xbf3310b0	-0.6994734
88	0x3f2799f2	0.65469277
89	0x3e374676	0.17897972
90	0xbd98f86a	-0.07469256
91	0xbe9ce17d	-0.30640784
92	0x3f365f14	0.7123883
93	0x3f444b4e	0.76677406
94	0x3f2e336d	0.6804722
95	0xbf5e268f	-0.86777586
96	0x3ef05821	0.46942237
97	0xbec3dd57	-0.38254806
98	0x3fa1f830	1.2653866
99	0xbeea619a	-0.4577759
100	0x3cac1cb1	0.021009775
101	0x3e0afc4b	0.13572805
102	0xbe358cf3	-0.17729549
103	0xbf36cab3	-0.71403044
104	0x3ddd4386	0.10803895
105	0x3f2bffbd	0.671871
106	0xbf2b3f55	-0.6689351
107	0xbfa37b1a	-1.2771943
108	0xbe28b427	-0.16474973
109	0xbe180429	-0.14845337
110	0x3ee14dea	0.44004756
111	0xbf669b57	-0.9008078
112	0x3fb47301	1.4097596
113	0x3f915ee1	1.135708
114	0x3ef35157	0.47522995
115	0x3f279878	0.65467024
116	0xbe804676	-0.25053757
117	0x3f40c7ed	0.7530506
118	0x3f50ab87	0.8151173
119	0x3f476a5b	0.7789666
120	0x3f4ce2d7	0.8003363
121	0x3e899f08	0.26879144
122	0x3f6ba677	0.9205088
123	0xbfa0a6ab	-1.2550863
124	0xbf3ab6d1	-0.72935206
125	0x3edc117b	0.42982087
126	0xbcb135b1	-0.021632047
127	0xbf9fffb6	-1.2499912
128	0xbe63e82a	-0.22256532
129	0xbf0ff97b	-0.5624005
130	0xbf5c8f46	-0.8615612
131	0x3e9b73c1	0.3036175
132	0xbeb416c3	-0.35173616
133	0xbebc42bc	-0.36769664
134	0xbed4ecc1	-0.4158688
135	0x3f0ef826	0.55847394
136	0xbe487177	-0.19574533
137	0x3ec03e06	0.3754732
138	0x3f3ee9cc	0.74575496
139	0xbf8c460d	-1.0958878
140	0xbe8aeb12	-0.2713247
141	0xbe94331b	-0.2894524
142	0xbee13b43	-0.43990526
143	0x3d9e4c05	0.07729343
144	0xbdcbbfb1	-0.099486716
145	0x3e107516	0.14107165
146	0xbf9a6461	-1.2061883
147	0xbe85dc24	-0.26144516
148	0x3f6d2971	0.9264136
149	0xbf11c6f2	-0.5694419
150	0x3cb34dd7	0.021887703
151	0xbf045f24	-0.51707673
152	0x3eebeb83	0.4607812
153	0xbd7aca36	-0.061228
154	0xbe2d5ea6	-0.16930637
155	0x3f8fbe03	1.1229862
156	0x3f97e5bd	1.1866986
157	0x3eb742de	0.35793203
158	0x3f6ba110	0.92042637
159	0x3fc53efa	1.5409844
160	0xbf50d188	-0.8156972
161	0xbf01c142	-0.50685513
162	0xbf183031	-0.59448534
163	0x3c5a1e2c	0.013312858
164	0x3f1d55bf	0.61458963
165	0xbf431d9b	-0.7621705
166	0xbf1b5426	-0.60675275
167	0x3e06d7c5	0.13168247
168	0xbf25ad9e	-0.64718044
169	0x3f6dae13	0.9284374
170	0xbe9828e0	-0.29718685
171	0x3f737144	0.95094705
172	0x3f3d1975	0.7386697
173	0xbed98e73	-0.42491493
174	0x3f378a3d	0.7169531
175	0x3fab3676	1.3375995
176	0xbf0098bb	-0.5023305
177	0xbf419bc1	-0.75628287
178	0xbd389c22	-0.045070775
179	0xbef9837a	-0.4873312
180	0x3e976f5b	0.29577145
181	0x3f93e31f	1.1553687
182	0xbee47ffb	-0.4462889
183	0x3f8c7978	1.0974569
184	0xbf22f92d	-0.6366146
185	0x3fba0054	1.453135
186	0x3e3bb608	0.18331158
187	0x3f3e8517	0.7442183
188	0x3f5f65d7	0.8726477
189	0xbed1f4b7	-0.41007015
190	0x3e25a3d3	0.16175775
191	0x3faf845c	1.3712268
192	0x3fdbcbbc	1.717155
193	0x3f883f50	1.0644321
194	0x3e93b896	0.28851765
195	0x3e9f8653	0.3115717
196	0xbe74a68a	-0.23891655
197	0x3fccef93	1.6010612
198	0x3f1dfe8a	0.6171652
199	0x3eb6226a	0.3557313
200	0x3f4f0ebf	0.80881876
201	0xbd506e40	-0.050886393
202	0x3f57415f	0.84084123
203	0xbf0b37a6	-0.5438179
204	0xbf54262b	-0.8287074
205	0x3f34c2cb	0.7060973
206	0xbe086bc8	-0.13322365
207	0xbf7fecc6	-0.9997066
208	0x3eb52ae1	0.35384277
209	0x3d1b4151	0.037904087
210	0xbf0d9cf1	-0.553176
211	0x3de1ea53	0.11031022
212	0xbf01766c	-0.5057132
213	0x3eb7948a	0.35855514
214	0x3e38ad3b	0.18034832
215	0xbefd2ab9	-0.49446657
216	0x3ea9d762	0.33172137
217	0xbe6fea01	-0.23429109
218	0x3ea124cd	0.3147339
219	0xbf35c03e	-0.70996463
220	0xbedc597e	-0.43037027
221	0x3edd8c57	0.43271133
222	0xbe25d4e5	-0.16194494
223	0xbf2d6d2a	-0.67744696
224	0xbf21db55	-0.632253
225	0x3e9f7ae7	0.31148455
226	0xbf82b603	-1.0211796
227	0x3cf6c100	0.030121326
228	0x3eee252d	0.46512738
229	0xbf12f92c	-0.57411456
230	0xbd0ebb8e	-0.034846835
231	0x3e84e081	0.25952533
232	0x3e0f2e5a	0.13982525
233	0x3f490515	0.7852338
234	0xbc315ed8	-0.010825835
235	0x3f6e87b2	0.93175805
236	0x3f30f0ee	0.6911763
237	0x3e6c7faf	0.23095582
238	0x3f61c2c6	0.88187826
239	0x3fa6107b	1.297378
240	0xbf56fe6d	-0.8398197
241	0x3df0b001	0.1175232
242	0xbf4d3f7c	-0.80174994
243	0x3ef10a54	0.47078192
244	0x3f3d0959	0.7384239
245	0xbf7092c7	-0.93973964
246	0x3df658f1	0.12028683
247	0xbeb910f1	-0.36145738
248	0x3e9f358a	0.31095535
249	0x3ec9a14b	0.3938087
250	0xbd5eaefa	-0.05436609
251	0x3f4e6de7	0.8063645
252	0x3f83e91f	1.0305518
253	0x3ebfee3d	0.3748645
254	0x3f02ba47	0.51065487
255	0x3f8c2e3c	1.095161
