ishtar/proprietary/odm/firmware/glove_model.tflite (tflite, 11264 bytes, 10 tensors)

Const_1 f4 [16]
000000 e8 56 f8 be 0f 15 7f 3f 51 75 75 bf e6 28 87 bf
       -0.48503804 0.9964151 -0.95882136 -1.0559356
000010 38 96 0b 40 50 80 24 3f 11 d8 36 c0 fc ad 17 bd
       2.1810436 0.6425829 -2.8569376 -0.03703116
000020 e1 7e d3 bf b5 4f 27 3f d5 38 2a bf 7c a4 cc 3b
       -1.6523095 0.65356 -0.6649297 0.006245194
000030 95 b4 3b bf 0b 52 9a bf 51 e9 02 3f 27 44 0e c0
       -0.7332242 -1.2056288 0.5113726 -2.2229097

Const_10 f4 [2]
000000 71 b9 09 3e 2a 17 96 3b
       0.13449647 0.004580398

Const_3 f4 [16]
000000 56 53 e2 3f 6b 60 8d 3e 6a f5 af bf 18 e9 11 bf
       1.7681682 0.27612624 -1.374677 -0.569963
000010 ca 06 83 c0 06 68 f7 be b0 17 3c bf b9 87 62 bf
       -4.0945787 -0.4832155 -0.73473644 -0.88488346
000020 44 bf e4 3f cd 45 5d c0 39 88 0a 3f c0 1f 02 bf
       1.787087 -3.4573853 0.5411411 -0.50829697
000030 5a 44 6c 40 96 36 dc bf 8d 4a 1f bf 7e 01 f5 be
       3.6916718 -1.7204158 -0.6222313 -0.478527

Const_5 f4 [16]
000000 53 ef b0 bd 4a b8 b0 bf ab 55 4d 3d 9a 6e 18 3f
       -0.086393975 -1.380624 0.050130527 0.59543765
000010 e4 a9 31 3e 0c a1 a9 bf 05 0e c5 3b ff 89 87 bd
       0.17349964 -1.3252273 0.006013634 -0.066181175
000020 25 87 98 bf 49 b8 6e bf 91 ce 02 c0 60 31 2f bf
       -1.1916243 -0.93249947 -2.0438578 -0.68434715
000030 e6 1b c0 bc a3 bc ec 3e 5c 5c 37 be 65 56 0d be
       -0.023450803 0.46237668 -0.17906326 -0.13802488

Const_7 f4 [16]
000000 a6 b7 85 3e d0 b4 8b be e0 6d 83 be 38 55 2f bd
       0.26116675 -0.27286386 -0.25669765 -0.04280588
000010 6c da 81 3e 6c a7 65 3e 73 be a7 bd e7 12 66 be
       0.25361955 0.22427148 -0.08190622 -0.22468148
000020 9c 81 43 bd 8b 78 7d bf 45 fa 3b bf 60 32 1c bd
       -0.047731027 -0.9901206 -0.73428756 -0.03813398
000030 47 db f2 bf 86 47 42 3d 5b 3e 3f 3e 29 2d 0b be
       -1.8973168 0.04743149 0.1867613 -0.13591446

MatMul f4 [2, 64]
000000 8a cb 21 c0 71 9d 1d 3f da 30 9c bf 9e c4 95 3f
       -2.528048 0.6156836 -1.2202408 1.1700628
000010 ad ac ee bd 1d 39 00 40 6d 51 42 bf ee 9a 6c bd
       -0.11654029 2.003486 -0.75905496 -0.05776494
000020 1c 1b 12 3e bf 07 77 bf 73 e9 13 bf c1 9d 55 bf
       0.14268154 -0.96496195 -0.5777809 -0.8344384
000030 e3 ac 9d 3d 58 ae a0 bd f6 f2 96 3f eb 6d 33 3f
       0.07698991 -0.078457534 1.1792896 0.70089597
000040 7f 79 23 3f 6a 7b 7f 3e d6 fb c2 3e 78 0e 75 3f
       0.63857263 0.24949422 0.3808276 0.957252
000050 aa 98 3b 3f 89 b8 d1 3e b3 91 b0 3e 19 21 70 3f
       0.7327982 0.40961102 0.3448616 0.93800503
000060 f4 67 4a 3f ac f3 b8 3e 8e d6 15 3f 3e d7 51 3f
       0.7906487 0.36123407 0.5853051 0.8196906
000070 ce 64 35 3c 1d de be bf a9 9c c4 be 9d 21 80 bf
       0.011071397 -1.4911534 -0.38400772 -1.0010258
000080 51 7a 5b 3f 61 da 82 3e 72 84 44 3f 6c 98 4f 3f
       0.85733515 0.25557235 0.76764596 0.8109195
000090 11 b4 e4 be 18 75 40 bf cd 15 15 bf dd e9 5b bf
       -0.4466863 -0.7517867 -0.5823639 -0.8590372
0000a0 d2 ca 1f be 3a 2f 7d bf 81 86 bb be f5 73 8d bf
       -0.15604714 -0.98900187 -0.36626056 -1.1051012
0000b0 bf 55 10 3f d1 a6 05 c0 40 c6 a6 be a5 c7 23 bf
       0.5638084 -2.0883067 -0.32573128 -0.6397651
0000c0 11 66 c9 bf 92 88 2a bd ff 43 18 bd a7 32 e8 bf
       -1.5734273 -0.04163415 -0.03717422 -1.8140458
0000d0 be 7a 95 bc ff 2e 0e 3e fc 98 b9 3f fd c4 0c 40
       -0.018247005 0.13885115 1.4499812 2.1995232
0000e0 93 29 f6 bf 8d 2b 02 c0 bd 58 67 bf 24 a5 08 c0
       -1.9231437 -2.0339081 -0.9036978 -2.1350794
0000f0 3f 3d ac 3d 9f 3e 4e bd c5 e9 64 bc 00 61 ba 3b
       0.08410119 -0.05035269 -0.013971751 0.005687833
000100 a0 5d 20 40 b4 c9 24 bf f4 08 b5 3f 00 04 ae bf
       2.5057144 -0.64370275 1.4143357 -1.3594971
000110 1d 51 7e 3d 89 ef 04 c0 61 4f 5e 3f e4 fa ca 3d
       0.062089074 -2.07712 0.8683987 0.09911135
000120 92 0c 96 be bf 4b 88 3f 19 3b 07 3f 77 1c 51 3f
       -0.29306465 1.0648116 0.5282455 0.8168406
000130 3a ab 37 3d dc d0 e6 3c 35 74 93 bf ab c9 55 bf
       0.04484103 0.028175764 -1.1519839 -0.83510846
000140 5b 5d 0d bf 00 58 95 be 2b e0 96 be e6 05 6f bf
       -0.55220574 -0.291687 -0.29467902 -0.93368375
000150 84 76 4c bf df d8 69 be 0c 41 e0 be eb 47 78 bf
       -0.7986834 -0.22836636 -0.43799627 -0.9698474
000160 f5 26 35 bf 8c 82 92 be d3 18 28 bf 32 e9 6f bf
       -0.7076257 -0.28615224 -0.6566288 -0.937152
000170 0b 8c ab bd fc ff cc 3f 2c 9e 11 3f 63 5e 52 3f
       -0.083763205 1.601562 0.56881976 0.8217527
000180 63 7b 4a bf 31 46 b3 be 1b 20 66 bf 4e af 40 bf
       -0.79094523 -0.3501449 -0.8989274 -0.75267494
000190 30 34 d8 3e af 33 14 3f 36 e8 10 3f fc c8 88 3f
       0.42227316 0.5789136 0.56604326 1.0686336
0001a0 1d 14 2e 3e 1e 71 5b 3f 0f af f7 3e 71 6b 8e 3f
       0.1699986 0.8571948 0.48375747 1.1126539
0001b0 14 94 c0 be 3b 3f ff 3f 56 17 dd 3e 68 55 2b 3f
       -0.37612975 1.9941171 0.43181866 0.66927195
0001c0 3e 39 c8 3f 02 12 3c 3e 22 48 1c 3e 6a cb e8 3f
       1.5642469 0.18366244 0.15261891 1.8187077
0001d0 e3 f1 48 be e7 a4 b5 3a fa b3 b1 bf 91 40 05 c0
       -0.19623522 0.0013858349 -1.388305 -2.0820658
0001e0 24 82 fa 3f 6f 47 f8 3f 16 19 7e 3f 7b 9a fd 3f
       1.9570966 1.93968 0.9925703 1.9812769
0001f0 2e 79 06 3e 7b 86 16 3e 2f 6a f9 3d e4 4f db 3c
       0.13132164 0.14699738 0.12178456 0.026771493

convolution f4 [16, 3, 3, 1]
000000 fa c8 8c bb f1 dd 18 bb 55 cd 4a 3b 5c 61 e2 bb
       -0.004296419 -0.0023325647 0.0030945141 -0.006908579
000010 eb c2 a3 bb d2 08 7e 3b 08 18 19 bc bf 24 d0 3b
       -0.0049976013 0.0038762582 -0.009344108 0.0063520367
000020 4b 64 79 3c 83 f9 08 bc 69 31 1c 3c db 14 15 bc
       0.015221666 -0.0083602695 0.009533265 -0.009099211
000030 cd 75 9a bc ba d3 84 3a 60 ed 3b 3c 7c 6d 93 3b
       -0.018855 0.00101339 0.011470169 0.0044991355
000040 8d 8c dd ba 6e 3b 06 bc b7 9f 80 ba 62 81 3d 3c
       -0.0016902849 -0.00819288 -0.0009813224 0.011566492
000050 a9 22 9a 3a 51 6f ea 3b 17 65 db bc f7 33 25 3c
       0.0011759597 0.007154383 -0.026781602 0.01008319
000060 f9 b8 99 bb 1f c6 dd bb 92 ea ef 3b 37 15 09 3c
       -0.00469124 -0.0067680026 0.007321664 0.008366874
000070 80 ff 07 3c a9 9c 30 3b 3c b0 09 3a e7 16 81 bc
       0.008300662 0.0026948845 0.0005252396 -0.015757991
000080 ea 1a 26 bc 43 77 b8 3a e3 80 85 39 bb f0 83 bc
       -0.010138253 0.0014073629 0.00025463765 -0.016106
000090 b0 54 a9 3b a9 e5 ad 38 27 ae c5 bb b2 b8 34 bb
       0.0051675662 8.2920604e-05 -0.0060327235 -0.0027575907
0000a0 4b 8f d9 bb c7 ab 15 bc 36 6f 1d 3c d8 35 bd ba
       -0.0066393963 -0.009135193 0.009609034 -0.0014435602
0000b0 cf df fa bb 0e 19 07 bc 48 8e 96 bb a9 47 51 bb
       -0.0076560746 -0.00824572 -0.004594598 -0.0031933582
0000c0 ca ec 1d bc 09 19 2f bc ea 16 bd ba aa 70 0d bc
       -0.009638974 -0.010687121 -0.0014426385 -0.008632818
0000d0 82 c0 01 bc 34 36 a8 3b f0 93 2d 3c 91 4c b5 ba
       -0.007919433 0.0051334146 0.010594353 -0.0013832023
0000e0 df 81 f4 bb d5 23 17 bb c1 d7 74 3b f2 ec 5a bb
       -0.007461771 -0.002306213 0.0037360045 -0.003340539
0000f0 8a 41 13 bc 8a 3f 7d 3c 47 5e 2b bb 2b e0 0f bc
       -0.008987794 0.015457043 -0.0026148723 -0.008781473
000100 17 a5 00 bc e8 fb 5d 3b 2c 76 9e bc 35 f1 d5 bb
       -0.0078518605 0.0033872072 -0.019343458 -0.0065289983
000110 23 03 1e bb 09 4a 14 ba 01 bf 2f 3c 3f 05 9a 3b
       -0.0024110756 -0.0005656784 0.010726691 0.0047003324
000120 09 db 53 3c 96 66 ea 3b 77 ff 15 bb 59 a4 20 3c
       0.01293064 0.0071533425 -0.0022887865 0.009804809
000130 53 cb bd bb 7e df 26 bb c2 13 01 bc a2 e2 25 bc
       -0.0057920604 -0.0025462802 -0.007878246 -0.010124834
000140 94 77 e4 ba a1 28 e1 bb 2b d0 f7 bb fb 12 87 b9
       -0.0017430657 -0.0068712984 -0.0075626574 -0.00025763348
000150 35 4b f6 3b 91 4a 50 3b 11 7b 12 3c 97 17 bb bb
       0.0075162896 0.0031782726 0.008940474 -0.0057095992
000160 19 03 1c bc 31 5d de ba 3d f9 ce 3b c6 fc 2e bc
       -0.009522223 -0.0016965029 0.0063163326 -0.010680383
000170 c4 7b 7d 3b 8e a5 2b 3c 5c 4b 1f bc 17 f9 89 3a
       0.0038678506 0.010476483 -0.009722557 0.0010526505
000180 9d 34 e7 3b 61 e8 7c bb ad 30 24 3c 0f 38 8d bb
       0.0070558325 -0.0038590657 0.010021371 -0.004309661
000190 02 cd 99 bb 6d ba 56 bb 07 b8 92 3a fe df ec bb
       -0.0046936283 -0.0032764927 0.001119376 -0.0072288504
0001a0 7b ab a0 bb 64 9c 24 3c 7e 7e e0 3b 75 c1 29 bb
       -0.0049032546 0.010047052 0.0068510165 -0.0025902663
0001b0 39 c5 48 bc 2e 73 9f 3c fa dd 99 bc e8 0e 2b 3c
       -0.012254053 0.019464102 -0.018782604 0.010440566
0001c0 3f 26 46 bc 16 30 1e bc fd 0f 45 39 1c cd 8f bb
       -0.0120940795 -0.009655019 0.0001879334 -0.0043884646
0001d0 c9 e8 8d bb 60 d6 7c 3b b6 03 24 bc 3d 08 b3 ba
       -0.0043307287 0.0038579926 -0.01001065 -0.0013659071
0001e0 83 ef cc bb 06 49 e0 3b b5 eb 8b 3c 4e a9 02 3c
       -0.006254138 0.0068446426 0.017080167 0.007974936
0001f0 93 22 dc bb b2 a9 08 bb 28 18 93 b9 74 f9 81 bb
       -0.0067179888 -0.00208531 -0.00028056023 -0.0039665047
000200 b1 1f da bb cd 12 1c ba 1c 87 f5 3a e5 a2 cc bb
       -0.00665661 -0.0005953729 0.0018732282 -0.0062450045
000210 20 f1 52 bb 3c 2c 1e 3c c4 a2 6a bc 79 c0 a5 3b
       -0.0032187179 0.009654101 -0.014321033 0.005058345
000220 83 a1 80 3b 89 3a 4f 3b c4 ff 19 bb 50 52 a0 3b
       0.0039255037 0.0031620583 -0.0023498395 0.004892625
000230 8c f1 f3 3b b2 0a 4e 3c a7 2d 12 bc 7b bd 34 bc
       0.007444566 0.012575792 -0.008922017 -0.011031504

convolution_1 i1 [16, 3, 3, 16]
000000 b3 0e ac 1c f9 3f 50 1f dd 35 9d a5 af f0 2f 2e
       -77 14 -84 28 -7 63 80 31 -35 53 -99 -91 -81 -16 47 46
000010 f0 05 c9 06 ca d5 0f eb 1f e4 d3 de f2 01 ef ff
       -16 5 -55 6 -54 -43 15 -21 31 -28 -45 -34 -14 1 -17 -1
000020 20 e1 ee 0d 0b f8 17 f1 fc 2c ca b6 1f f6 b6 05
       32 -31 -18 13 11 -8 23 -15 -4 44 -54 -74 31 -10 -74 5
000030 e1 27 ba 1f 03 27 eb e0 f9 04 cc fa c3 fc fe b4
       -31 39 -70 31 3 39 -21 -32 -7 4 -52 -6 -61 -4 -2 -76
000040 0c 4d e6 61 e7 0f 6f 2d 30 35 ff 03 1b ab 02 01
       12 77 -26 97 -25 15 111 45 48 53 -1 3 27 -85 2 1
000050 e1 cf ed 43 e3 d2 fb fa 54 4d fa 03 53 b2 81 f4
       -31 -49 -19 67 -29 -46 -5 -6 84 77 -6 3 83 -78 -127 -12
000060 00 d9 fd 33 e2 95 d7 d3 03 f1 f1 01 ba 19 fe 2b
       0 -39 -3 51 -30 -107 -41 -45 3 -15 -15 1 -70 25 -2 43
000070 05 f5 07 f9 14 45 2b 01 1a 0b e7 16 cb 40 3f 21
       5 -11 7 -7 20 69 43 1 26 11 -25 22 -53 64 63 33
000080 c9 23 16 d3 eb fc e5 f1 c8 03 f6 f1 cd d1 da d4
       -55 35 22 -45 -21 -4 -27 -15 -56 3 -10 -15 -51 -47 -38 -44
000090 fa 18 00 f8 14 40 ee 07 12 e9 06 22 26 e8 fa 08
       -6 24 0 -8 20 64 -18 7 18 -23 6 34 38 -24 -6 8
0000a0 09 e1 ff fc e2 15 28 dd da c1 f3 f2 ff 10 1f 03
       9 -31 -1 -4 -30 21 40 -35 -38 -63 -13 -14 -1 16 31 3
0000b0 e9 00 fd 0f 00 40 de ea ed 28 03 e5 e9 1d 1e 28
       -23 0 -3 15 0 64 -34 -22 -19 40 3 -27 -23 29 30 40
0000c0 fb 1d d7 f7 16 fe 30 11 f1 f8 fa fa f2 e7 07 24
       -5 29 -41 -9 22 -2 48 17 -15 -8 -6 -6 -14 -25 7 36
0000d0 f3 ff e0 28 eb fe c5 00 1e d2 e8 e9 0a 0f ce 04
       -13 -1 -32 40 -21 -2 -59 0 30 -46 -24 -23 10 15 -50 4
0000e0 81 0d ca 19 33 27 24 0b d2 29 04 20 e5 c9 08 d2
       -127 13 -54 25 51 39 36 11 -46 41 4 32 -27 -55 8 -46
0000f0 22 05 f0 ae f7 f1 cc 00 d0 10 09 e6 15 02 05 0e
       34 5 -16 -82 -9 -15 -52 0 -48 16 9 -26 21 2 5 14

convolution_2 f4 [16, 1, 1, 16]
000000 d9 47 2d bf 0a d2 a8 be b6 ac 60 3f 9d 8b 74 3f
       -0.67687756 -0.32972747 0.87763536 0.9552553
000010 21 ba 49 be 35 1d 48 3f c7 b9 a6 3f 1b 56 b6 3e
       -0.19699909 0.78169566 1.3025445 0.35612568
000020 d6 df a7 bf e0 d3 30 bf e6 7c 0a bf 80 8b 12 3f
       -1.3115184 -0.69073296 -0.5409683 0.5724411
000030 f0 eb 80 bd 16 e3 31 bf 63 93 ad be 2e 22 87 bf
       -0.062950015 -0.6948713 -0.3390151 -1.0557306
000040 9c 85 fb bf 55 73 a5 bf 6a 6f 58 3f 56 01 43 3e
       -1.9650149 -1.2925822 0.84545004 0.19043478
000050 36 07 8a 3f b3 05 98 3f d4 8d 53 3f 60 3e 49 3f
       1.0783451 1.1876739 0.8263829 0.786108
000060 3b c9 62 bf eb 2e 25 bf c0 b2 cd be 8e 29 f2 3e
       -0.88588303 -0.64524716 -0.40175438 0.4729733
000070 73 6f d0 be e4 76 de be 40 fd 01 3d ed 5b 88 bf
       -0.4071003 -0.4345008 0.03173566 -1.0653054
000080 09 2c b7 bc 46 80 aa bd ab 13 01 bf 24 bb 50 3e
       -0.022359865 -0.083252475 -0.50420636 0.20383888
000090 e3 61 35 3d 06 b2 c1 bd d4 a6 c1 3b 73 0c a9 3d
       0.044282805 -0.094577834 0.00590978 0.082543276
0000a0 f1 29 14 bf ad 69 1c bf bc 90 6b 3f 69 de e6 3e
       -0.578765 -0.6109875 0.9201772 0.4509156
0000b0 ac 52 1b 3e d1 8c 39 3d 31 03 81 3f f0 08 90 3c
       0.15168256 0.04530031 1.0079099 0.017582387
0000c0 98 5a 97 be 6f 6a f8 bc f6 24 55 be c2 b3 84 3e
       -0.29561305 -0.030324189 -0.2081488 0.25918394
0000d0 99 b6 10 3f be 5e a7 be 62 8d 09 3f 1f 24 d2 be
       0.5652862 -0.3268947 0.5373136 -0.41043183
0000e0 c1 c3 91 bf de 6a 5d be b5 8b 08 3f 27 e0 a0 3f
       -1.1387864 -0.21622798 0.53338176 1.2568406
0000f0 44 2c 32 3f 64 ff 64 bf 38 ee 47 3f ea af 93 be
       0.69598794 -0.89452195 0.7809787 -0.2884515
000100 57 66 2a 3d fc c9 ad be 43 9d 4b 3f e8 07 2f 3f
       0.041601505 -0.33943164 0.7953684 0.6837144
000110 11 a6 77 3f df 21 e8 3e 25 5c 4b 3d c3 65 fc 3e
       0.9673777 0.45338342 0.049648423 0.49296388
000120 d0 99 e3 3d 91 47 a5 bf 5e 22 28 bf 2f bb 6c 3e
       0.11113322 -1.2912465 -0.6567744 0.2311828
000130 21 fd 77 be 19 a5 b8 bf 0d 95 7c bf 1d d5 59 bf
       -0.24217655 -1.4425384 -0.98664933 -0.8509081
000140 7e 21 b2 be 02 da a1 bf 17 2d 0f bf f8 49 85 3e
       -0.34791178 -1.2644656 -0.55928177 0.26032996
000150 e8 07 48 bf 15 82 e2 be 88 4a fa 3d a2 52 8f be
       -0.78137064 -0.4423987 0.12221247 -0.2799273
000160 d1 f8 00 3f c0 fc a9 bf de 70 bb 3e cc 9d 83 bd
       0.50379664 -1.3280258 0.36609548 -0.06426582
000170 c6 c6 b7 be a7 a2 93 bf 8d ca a7 3f 20 ff c7 3e
       -0.3589384 -1.1534013 1.3108689 0.39061832
000180 00 c7 1e bf 71 ab 64 3f bd 9b 7d be a2 a6 79 be
       -0.620224 0.893241 -0.2476644 -0.24379972
000190 8c 28 8a bf 65 57 87 3e db 83 94 bf d3 f2 2a 3f
       -1.0793624 0.26433864 -1.1602739 0.6677677
0001a0 ac 53 1e bf de 18 c9 bf 69 1f 25 3f e6 1b d6 3d
       -0.61846423 -1.5710714 0.64501053 0.1045454
0001b0 1c 1e 46 bf 81 96 37 3f c3 44 b3 bd 28 43 80 3f
       -0.77389693 0.71714026 -0.0875335 1.0020494
0001c0 5c 61 a1 bf c7 af 1a 3f 6e 56 d9 be 7b 78 ba 3e
       -1.2607837 0.60424465 -0.42448753 0.36420044
0001d0 23 95 c1 3e e0 03 c0 bd 66 c8 ed be e2 cd 36 3f
       0.37809095 -0.09375739 -0.46441954 0.714079
0001e0 e6 17 2e bf e5 66 a6 3e 11 7c df 3e 27 51 1f be
       -0.68005216 0.32500377 0.43649343 -0.15558301
0001f0 15 fa d3 bf 79 b1 52 3e 9d 81 58 3e 02 6c 2b 3f
       -1.6560694 0.20575513 0.21143194 0.6696168
000200 8c f0 de bf 31 e3 f0 bf fc 15 08 3f ff 23 16 3f
       -1.7417159 -1.8819333 0.53158545 0.58648676
000210 a5 94 92 3f 07 c1 0c 3f 6c 22 63 3d ce d9 22 3f
       1.1451613 0.54982036 0.05545275 0.63613594
000220 7c fb b8 be 53 15 83 bf b6 21 af be d7 8c 14 3f
       -0.36129367 -1.0240883 -0.34205407 0.58027405
000230 1f b6 88 bf 80 1a 44 bf d0 5b 76 3d be 7c 89 bf
       -1.0680579 -0.76602936 0.060146153 -1.0741193
000240 86 2d 5f 3f 08 43 8a 3e de 58 81 bf 9f cf 3e bf
       0.8717884 0.27004266 -1.0105245 -0.74535555
000250 fa 57 9e bf b0 99 d0 bf 65 1f 67 bf a2 f8 ee bf
       -1.2370598 -1.6296902 -0.9028228 -1.8669627
000260 65 09 d8 be dd 8d f5 3e 6c da 4f 3f bc 02 f9 bf
       -0.42194667 0.47959796 0.8119266 -1.945396
000270 2b 7f b0 3f b8 df 36 be 47 f4 5c 3e 6d bb 9a bf
       1.3788809 -0.1785878 0.2157756 -1.2088448
000280 5f d5 91 bf 86 ab 6f bf 76 9b 15 3f 23 a1 46 be
       -1.1393241 -0.936211 0.5844034 -0.19397406
000290 3e be a0 bc 57 0f 97 3f e4 fa b9 3f 25 3f 35 3f
       -0.019621965 1.1801556 1.4529691 0.70799476
0002a0 2c 92 6c bf e2 47 42 bf f8 97 ea bd 44 24 63 3e
       -0.9241054 -0.75890934 -0.11454767 0.22181803
0002b0 6f 63 f3 3e 5b 84 50 bf 04 68 ee bd 7b 19 03 bf
       0.475368 -0.8145196 -0.11640933 -0.51210755
0002c0 94 35 76 bf 8f 5d 96 bf 8d a8 6e 3e ac 7d b7 3e
       -0.96175504 -1.1747302 0.23306485 0.35838068
0002d0 b2 dc 90 3f d5 3a 64 3f 37 4e 73 3f 38 35 2d 3f
       1.1317351 0.8915227 0.9504122 0.6765933
0002e0 7a 0a 99 be 1c e6 88 bf 3f 3d e3 be b3 07 58 3f
       -0.29890805 -1.0695224 -0.44382665 0.8438675
0002f0 17 7b f7 be 40 21 c8 bf 38 fd ba be 59 e3 32 bf
       -0.48336098 -1.5635147 -0.36521316 -0.69878155
000300 f9 07 af bc ca a7 27 3b 37 72 1e 3d e1 f4 74 be
       -0.021366106 0.0025582188 0.038683143 -0.23921539
000310 7e 60 4f be ff 96 51 be cc 98 27 be 94 fd 22 be
       -0.20251653 -0.20467757 -0.16366881 -0.15917045
000320 f5 0a 4b be 9f fc a0 be 13 cc 0a be e7 4e 02 be
       -0.19828399 -0.31442735 -0.1355441 -0.12725411
000330 a2 0e 62 bd fd 69 4a 3d 89 c5 d5 bd 02 7f 55 bc
       -0.055189736 0.049417485 -0.104380675 -0.013030769
000340 34 2c 38 bf c5 4a b0 be d1 55 9d be 2e 9e 78 3f
       -0.7194245 -0.34432045 -0.30729535 0.97116363
000350 a9 b4 b3 3e e5 b5 e2 3c 4f 11 b1 3e 43 fe 3e 3e
       0.3509877 0.027674625 0.34583518 0.1865168
000360 55 c9 a4 bf 32 3d 97 bf 22 3f d8 be 98 c9 8e 3f
       -1.2873942 -1.181555 -0.42235667 1.1155272
000370 d3 73 86 bf 95 4c 31 bf 6a 17 e5 be 59 f7 b1 bf
       -1.0504097 -0.6925748 -0.44744426 -1.390361
000380 62 7b 04 bf e3 c9 cb 3e 7b a9 80 c0 20 02 3e 3f
       -0.5175077 0.39802465 -4.0206885 0.7422199
000390 78 44 f6 be 71 70 3b c0 c7 2e ac bd 31 bc 5f 3e
       -0.48099113 -2.9287379 -0.084073596 0.21849133
0003a0 69 86 d4 bd 6d 54 3b bf 34 64 ba 3f 96 3c 81 3f
       -0.10377199 -0.731757 1.456183 1.0096614
0003b0 71 c3 b4 3e d4 a3 fc bd 12 f3 69 bf 1b 5a bf bd
       0.3530536 -0.12335935 -0.9138652 -0.09343358
0003c0 6c 86 d7 bb 73 cd 97 bf ad 97 90 3f bd 56 f5 3e
       -0.0065773036 -1.1859573 1.1296288 0.4791774
0003d0 53 c1 15 3f 68 89 70 3f b9 01 d9 3e 59 6e 86 3f
       0.58498114 0.93959665 0.42384127 1.0502425
0003e0 05 1d 1a 3e b6 ab 41 bf 64 bd ec be 7b 0d 96 3e
       0.15050133 -0.75652635 -0.46238244 0.2930716
0003f0 c3 35 3a bd 1a 6c a0 bf 25 3f b5 bf c8 1b 59 bf
       -0.045461427 -1.253299 -1.4159895 -0.84808016

convolution_3 f4 [16, 1, 1, 16]
000000 6e e4 a3 be e0 31 4c be 6f 5c 0a be ea 4d 6b be
       -0.32010216 -0.19940901 -0.13511823 -0.2297894
000010 70 06 fb 3e 9d 8d cb 3d 54 5d ea 3f 26 59 6d 3f
       0.4902835 0.0993912 1.8309731 0.92714155
000020 c5 57 e4 bb 84 8e 6b 40 dc 5d f6 bf be 26 44 bf
       -0.0069684708 3.6805735 -1.9247394 -0.76621616
000030 aa 7e 22 be b5 6e 02 40 c8 b2 05 bf 70 69 af bf
       -0.15868631 2.038007 -0.52225924 -1.3704052
000040 5d a1 f9 be e3 d2 82 3f f4 0f 6b 3e f5 a4 81 be
       -0.48755923 1.0220608 0.22955304 -0.25321165
000050 73 35 a9 bf f0 ea 53 40 24 82 36 3f 2f 10 8c 3e
       -1.3219436 3.3112144 0.7129233 0.27356097
000060 5a d5 39 3f de 5c 85 c0 ca cf 01 3f 38 29 78 3f
       0.72591174 -4.1675863 0.50707686 0.96937895
000070 c3 67 fd bd 66 3c b6 bf c3 97 28 3d 48 d1 8e be
       -0.123733066 -1.4237182 0.041160356 -0.27894044
000080 8a 3c 93 3f 15 1b 87 3f f2 47 dd bd 36 09 b3 3e
       1.150285 1.055514 -0.10804738 0.34967965
000090 a4 be f2 3e a7 88 63 bf f7 52 7b 3e ae 0b a9 be
       0.47411072 -0.8888039 0.24543367 -0.33016723
0000a0 21 5e 52 3f ec 9b ce 3f 29 40 df 3f ce b0 f9 3e
       0.8217488 1.6141334 1.7441455 0.48767704
0000b0 f0 90 ec 3c bc 83 87 3f 0c b0 c6 3e 1c a1 e9 3f
       0.028877705 1.0587077 0.38806188 1.8252292
0000c0 47 a7 74 bf 99 54 58 bf d4 41 5a 3f 3c a3 4b 3f
       -0.95567745 -0.84504086 0.85256696 0.7954595
0000d0 ab 08 b2 be 07 d7 a2 ba 9b eb f0 3e 08 42 53 be
       -0.34772238 -0.0012423702 0.47054753 -0.20630658
0000e0 8e 05 f6 be c8 fd b4 bf 3d 11 53 be 20 3f e0 be
       -0.48051113 -1.4139948 -0.20612045 -0.4379816
0000f0 26 80 2f 3e 87 e0 32 be ed 80 90 3f 15 86 d2 bf
       0.17138728 -0.17468463 1.1289345 -1.6447169
000100 1a 24 14 bf 83 dd 59 bf 4e 9c 39 3f 3d c9 58 3f
       -0.57867587 -0.85103625 0.7250413 0.84682065
000110 fa 28 f5 be 12 8d 06 3f ae 4d 1e 3f 3b 72 d6 3d
       -0.47882825 0.52559006 0.6183728 0.104710065
000120 7a b7 25 bf f3 33 2f c0 53 c9 8b bf 32 e2 61 bf
       -0.6473309 -2.7375457 -1.0920814 -0.8823577
000130 97 02 2a be ac c1 6f bf 63 a9 3e 3f d8 6b 87 bc
       -0.1660255 -0.93654895 0.74477214 -0.016530916
000140 fd 65 6a bf 92 48 49 bf 92 71 82 3f eb c6 6a 3f
       -0.9156187 -0.7862636 1.0190909 0.91709775
000150 52 48 5a bf f6 94 06 3f 34 75 f8 3e ed ea 42 3e
       -0.852666 0.52571046 0.4852692 0.1903493
000160 7f f1 bb be 45 65 14 c0 e2 a7 8e bf 24 43 57 bf
       -0.36707684 -2.318681 -1.1144984 -0.84086823
000170 49 9f cb bd 3f 25 81 bf 30 77 81 3f f3 14 7e 3e
       -0.099424906 -1.0089492 1.0114498 0.24812679
000180 98 9d 29 bf 30 36 9b bf db f3 70 3f 84 4b 64 3f
       -0.66256094 -1.2125912 0.94122094 0.8917773
000190 f8 3f 54 bf 6d 8b 3f 3f 5e 46 1c 3f 2d 02 cb bd
       -0.8291011 0.7482212 0.6104487 -0.09912524
0001a0 a5 9d 10 bf de 15 da bf fd 2a 75 bf 36 0a 60 bf
       -0.56490546 -1.7037923 -0.9576872 -0.8751558
0001b0 9f aa cf bc 95 97 7f bf 2f e4 76 3f 25 70 b2 3e
       -0.025349913 -0.9984067 0.9644193 0.34851184
0001c0 c0 41 94 3f 9f dd 61 3f c0 b1 2f 3e e9 ef 99 3e
       1.1582565 0.8822879 0.1715765 0.3006585
0001d0 ed 3a 20 3f cd 9a 8c bf 58 ff c8 3d c5 3a 01 bf
       0.62589914 -1.0984741 0.09814328 -0.504803
0001e0 f5 1e 4e 3f 59 e4 08 40 70 94 e9 3f 0e a5 02 3f
       0.80515987 2.1389372 1.8248425 0.51033103
0001f0 5a 89 0c ba bb 27 93 3f ff d5 04 3f 10 1b f9 3f
       -0.0005361043 1.14965 0.5188903 1.9461384
000200 24 98 53 bf e8 40 8f bf f0 ef 81 3f 30 0b 63 3f
       -0.82654023 -1.1191683 1.0151348 0.88688946
000210 ff 69 5d bf ad 38 eb 3e 7a 88 9d 3e 3e 42 bc bd
       -0.8648986 0.45941678 0.30768186 -0.09192322
000220 d1 80 26 bf b3 47 aa bf 7f 8e 6e bf 82 0d 47 bf
       -0.6504031 -1.3303131 -0.9318618 -0.77754986
000230 43 41 72 3d 12 51 99 bf 63 28 b0 3f 9f 3e 50 3e
       0.05914427 -1.1977866 1.3762325 0.20336388
000240 53 1b 32 3f 79 8e 99 3f d2 4e b0 3c 09 82 0f 3e
       0.69572943 1.1996604 0.02152196 0.14014448
000250 33 a1 b5 3c e8 89 de be c7 65 1f be 35 d5 a3 3d
       0.022171592 -0.4346459 -0.15566169 0.079996504
000260 b4 95 41 3f 3f a0 8c 3f de 70 f6 3f b4 73 05 3f
       0.75619054 1.0986403 1.9253194 0.52129674
000270 b2 52 67 bd 42 25 6a 3f a9 e9 60 3f 04 35 11 3f
       -0.05647535 0.914631 0.8785654 0.5672152
000280 49 b1 94 3f b3 ac 98 3f 90 95 05 be 71 6d c3 3e
       1.1616603 1.1927704 -0.13045335 0.38169435
000290 cf 56 00 3f 76 64 40 bf cb e7 c7 3b 1e 79 4e be
       0.5013246 -0.7515329 0.00610063 -0.2016339
0002a0 ea 0b 0d 3f 4a e3 5a 3f a0 78 f1 3f db fe 3c 3f
       0.55096304 0.85503066 1.8864937 0.7382638
0002b0 a1 ef 20 3d 4c 00 83 3f 7b 7e 6a 3f 24 16 99 3f
       0.039291028 1.0234466 0.91599244 1.1959882
0002c0 20 12 10 3f c8 8b 4a 3e a9 61 5c 3d fe ee 31 3e
       0.56277657 0.19779885 0.053804073 0.17376325
0002d0 89 ad cb 3e b9 ae 1a c0 f6 b1 1c bd 53 65 73 bf
       0.39780834 -2.4169142 -0.038255654 -0.95076483
0002e0 e6 84 ea bd d0 de ed 3f a9 33 ae 3f a9 24 8c 3e
       -0.114511296 1.8583622 1.3609515 0.2737172
0002f0 08 b6 03 3b 10 12 9b 3f 5b 04 2b 3f f7 1a 02 40
       0.0020097513 1.2114887 0.6680352 2.0328958
000300 ce 64 3a be 62 9f 40 3f b7 6b 79 3e 6b f7 30 3e
       -0.18202516 0.752432 0.24357496 0.17281882
000310 39 2d 8a bd a8 92 bd 3e 8a fb e1 be ff 18 0d bf
       -0.06746907 0.37025952 -0.44137222 -0.55116266
000320 09 32 02 3f fb 0e e7 3f a3 3c d3 3f 63 40 83 3f
       0.508576 1.8051447 1.650288 1.0254024
000330 30 75 2d bd 0d 01 f3 3d 35 39 df 3f 9e 17 b7 3d
       -0.042348087 0.11865435 1.7439333 0.089400515
000340 6c 42 5e c0 a6 d8 13 c0 9d 59 c5 3e 96 cc 2d 3f
       -3.472804 -2.3100982 0.38544932 0.678903
000350 cc 8b d7 bf 76 fc bb bf fb b3 e9 3e d9 56 83 be
       -1.6839538 -1.468642 0.45645127 -0.25652197
000360 f3 f5 3d c0 2a 11 79 bf 89 b8 95 bf 7b c4 17 c0
       -2.9681365 -0.97291815 -1.1696941 -2.3713672
000370 35 a7 0d 3d c3 4e 41 c0 54 04 49 3f 93 09 f9 3e
       0.03458329 -3.0204322 0.7852223 0.48640117
000380 66 4e ab be 6e 38 be 3f 4a 87 11 bf d2 3c 53 bf
       -0.3345825 1.4860971 -0.5684706 -0.8251468
000390 cb 29 b5 3f 57 16 22 bf 9c 76 0a 3f f8 16 b6 bf
       1.4153379 -0.6331534 0.54087234 -1.422576
0003a0 4d 23 83 3f 8d 44 44 40 4a 45 16 40 3c 4b 93 3f
       1.0245148 3.066684 2.347979 1.1507335
0003b0 b0 e4 50 bd 6a 54 f9 3e 04 9b 86 3e f2 f8 a0 3f
       -0.050999343 0.48697215 0.26290143 1.2575972
0003c0 78 c7 81 bd 68 60 04 3e bd 54 43 bd 9b bd 31 bc
       -0.06336874 0.12927401 -0.047688235 -0.010848428
0003d0 6e 46 79 3d e0 11 d6 be 2a 1f ad be b1 0f b5 be
       0.060858183 -0.41810513 -0.3381284 -0.35363534
0003e0 2f 20 b0 be 89 67 92 bd f5 db 9b be c4 1c 17 be
       -0.34399554 -0.07148654 -0.3044125 -0.14757067
0003f0 71 78 7a 3d d8 48 74 be 4f 72 77 be 58 73 d8 be
       0.061150018 -0.23855913 -0.24164699 -0.422755
