xiaomi13/proprietary/odm/overlayfs/nuwa/odm/firmware/water_check.tflite (tflite, 11776 bytes, 16 tensors)

Const_11 f4 [16]
0	0xbf9ff2c1	-1.2495958
1	0xc017722b	-2.3663433
2	0x3eef0f99	0.46691588
3	0x3d007560	0.031361938
4	0xbed5c939	-0.41755083
5	0x3eb1668e	0.34648556
6	0xbfd7000f	-1.6796893
7	0x403fd436	2.9973273
8	0xbf35aa5f	-0.7096309
9	0xbe972ef6	-0.29528016
10	0xbfdecb44	-1.7405782
11	0xbfb34062	-1.4004023
12	0x3fc5d450	1.5455418
13	0x3f800dd4	1.000422
14	0x40013766	2.0190063
15	0x3dea7c9e	0.1144955

Const_14 f4 [3]
0	0xc18fa3be	-17.954952
1	0x41de1830	27.76181
2	0xc19de97c	-19.739006

Const_2 f4 [16]
0	0x3d63874e	0.05554896
1	0x3eef2203	0.46705636
2	0xbe62146d	-0.22078104
3	0x3df9ffe2	0.12207009
4	0x3c14a5f0	0.009072766
5	0x3e88c080	0.26709366
6	0xbd84333c	-0.06455085
7	0x3f24f359	0.6443382
8	0x3f08e62c	0.53476214
9	0x3ed5aa90	0.4173169
10	0xbe1289af	-0.14310335
11	0x3e81cc83	0.25351343
12	0x3f72f610	0.9490671
13	0xbd92a471	-0.07160271
14	0xbcbe4254	-0.023224987
15	0xbc7d1380	-0.015446544

Const_5 f4 [16]
0	0x3fce44df	1.6114768
1	0xbf09764c	-0.5369613
2	0x3e8afb52	0.27144867
3	0x3cd5b4d4	0.026087202
4	0x3fb54e18	1.4164457
5	0x3faa18a2	1.3288767
6	0x3f86fed6	1.054652
7	0x3f9c498e	1.2209947
8	0xbf14459e	-0.5791873
9	0x3f77b518	0.967607
10	0x3f758daa	0.9591929
11	0x3eb45232	0.3521896
12	0xbf42cb1c	-0.7609117
13	0x3ea4a580	0.32157516
14	0x3f0ae142	0.54249966
15	0x3f968607	1.1759652

Const_8 f4 [16]
0	0x3fe74256	1.8067119
1	0xbfe06eca	-1.753381
2	0x3efaa758	0.48955798
3	0x3fc7083e	1.554939
4	0xbfcd681f	-1.60474
5	0x3f9e9a21	1.2390786
6	0xc0726dd6	-3.7879539
7	0xbf8f2b02	-1.1185
8	0x3f0fda61	0.56192595
9	0x40432e3f	3.0496976
10	0xbfc72b27	-1.5560044
11	0xc07fad36	-3.994947
12	0x4050b86b	3.261256
13	0x3eda8e22	0.42686564
14	0x404e10ff	3.2197874
15	0x3fe8c9b6	1.8186557

convolution1 f4 [1, 3, 3, 1]
0	0x3e9b44d6	0.30325955
1	0xbf91e039	-1.1396552
2	0x3fc88f95	1.5668818
3	0x3d6d8ea8	0.057997376
4	0x3f13166e	0.574561
5	0x3bdad082	0.006677688
6	0x3e877b17	0.26461098
7	0x3fc778c7	1.5583733
8	0xbf73ac52	-0.95184815

depthwise_3 f4 [16]
0	0x00000000	0.0
1	0x00000000	0.0
2	0x00000000	0.0
3	0x00000000	0.0
4	0x00000000	0.0
5	0x00000000	0.0
6	0x00000000	0.0
7	0x00000000	0.0
8	0x00000000	0.0
9	0x00000000	0.0
10	0x00000000	0.0
11	0x00000000	0.0
12	0x00000000	0.0
13	0x00000000	0.0
14	0x00000000	0.0
15	0x00000000	0.0

convolution_1 f4 [16, 1, 1, 1]
0	0x3b876b68	0.004132677
1	0xbb87038e	-0.004120297
2	0xbbaf9798	-0.0053586476
3	0x3b82a32f	0.003986738
4	0xbbb5504e	-0.0055332547
5	0x3b68bc28	0.003551254
6	0x3b70898c	0.0036703078
7	0xbb93e9a5	-0.0045139366
8	0x3b4da719	0.0031380116
9	0x3b576201	0.0032864811
10	0x3b5e1467	0.0033886672
11	0x3b716c0d	0.0036838085
12	0xbb85e4bf	-0.0040861065
13	0x3b8b2be2	0.0042471746
14	0x3b736f28	0.0037145112
15	0x3b7f17ab	0.003892402

depthwise f4 [1, 3, 3, 16]
0	0xbd980a48	-0.07423836
1	0xbec964d0	-0.39334726
2	0xbca1b280	-0.019738436
3	0xbdfc3c09	-0.12316138
4	0xbf5c1c70	-0.8598089
5	0x3f0d57f1	0.5521231
6	0xbe954355	-0.29152933
7	0x3f2efda7	0.6835579
8	0x3df6b82d	0.120468475
9	0xbf0e82ea	-0.5566851
10	0xbe178ed1	-0.14800574
11	0x3f4dc690	0.8038111
12	0xbf5125e3	-0.81698436
13	0xbe6c2364	-0.23060375
14	0x3f3e7759	0.7440086
15	0x3e1f41b5	0.15552409
16	0x3ebfb1c3	0.3744031
17	0xbe4ae0e1	-0.19812347
18	0x3ead312d	0.3382658
19	0x3ed72164	0.42017663
20	0x3e74d67b	0.23909943
21	0xbf20bbd3	-0.62786597
22	0xbef89e5b	-0.48558316
23	0x3f25fcfd	0.64839154
24	0xbddefc74	-0.10887995
25	0xbd984fa5	-0.07437066
26	0x3eeb7ffa	0.45996076
27	0x3eb4ab6e	0.3528704
28	0xbef44692	-0.4771009
29	0xbf8c90c1	-1.0981675
30	0x3e64fc7d	0.22361942
31	0xbed66d0e	-0.41880077
32	0xbdbb3314	-0.09140602
33	0xbe329a42	-0.17441657
34	0x3e2dc43d	0.1696939
35	0x3f134e9b	0.5754182
36	0x3f26ba3d	0.6512793
37	0xbe97b889	-0.29632977
38	0x3e9c35c7	0.3050978
39	0xbea9e127	-0.3317959
40	0xbd6f352d	-0.05840032
41	0xbeea33d7	-0.45742676
42	0xbe9842e7	-0.29738542
43	0xbcefde86	-0.029280912
44	0x3e5542fd	0.20826335
45	0x3f0fc237	0.56155723
46	0xbd22c5e9	-0.039739523
47	0xbda15c5d	-0.07878945
48	0xbf32e1c8	-0.69875765
49	0xbf3238b8	-0.69617796
50	0xbcb9ff52	-0.022704754
51	0x3f525cf8	0.8217311
52	0x3e57f63e	0.21090028
53	0xbe9196d9	-0.284354
54	0x3f19678b	0.5992362
55	0xbec661ed	-0.38746586
56	0xbf248e66	-0.6427978
57	0x3f4d1007	0.8010258
58	0x3ef1a982	0.47199637
59	0xbe55d579	-0.20882215
60	0x3e7951a6	0.24347553
61	0xbe89df7c	-0.26928318
62	0xbe9c0ba5	-0.30477634
63	0x3f48b449	0.78400093
64	0x3e98e02f	0.29858539
65	0x3ecb0c0f	0.39657637
66	0xbf15878b	-0.5840995
67	0xbf8476f9	-1.0348808
68	0x3f62a067	0.88526005
69	0xbef601df	-0.48048303
70	0xbf384401	-0.71978766
71	0xbf566f3b	-0.83763474
72	0xbee03de8	-0.4379723
73	0x3f083394	0.532037
74	0xbf557611	-0.8338328
75	0x3f25290a	0.64515746
76	0xbeb76c89	-0.35824993
77	0x3ee5f401	0.44912723
78	0xbf672e30	-0.9030485
79	0xbf653b86	-0.8954395
80	0xbf30da57	-0.6908316
81	0xbf4ce7b7	-0.8004107
82	0xbede6ca4	-0.4344226
83	0xbea297f7	-0.31756565
84	0xbe55df72	-0.20886019
85	0x3cbeb873	0.023281312
86	0x3f02e821	0.5113545
87	0x3ec91ac0	0.3927822
88	0xbd6cb563	-0.05779017
89	0xbf0e14d0	-0.5550051
90	0xbe41a357	-0.18909965
91	0xbf1b44bf	-0.60651773
92	0x3f60c0c8	0.8779416
93	0xbe9568fb	-0.29181656
94	0x3e31390d	0.1730692
95	0xbea70d8b	-0.3262752
96	0x3e89476d	0.26812306
97	0xbe2a971f	-0.1665921
98	0xbebe1e20	-0.3713236
99	0x3db95489	0.09049327
100	0xbf903a81	-1.1267854
101	0x3f04a8ed	0.5182026
102	0xbf42bc6d	-0.76068765
103	0xbeabc152	-0.3354593
104	0x3d906060	0.07049632
105	0xbd6c72b1	-0.057726566
106	0x3f26b513	0.6512005
107	0xbe69c8a2	-0.22830442
108	0x3cc9baf6	0.024625283
109	0x3e855ae2	0.260459
110	0xbf029a20	-0.51016426
111	0xbe3e5973	-0.1858881
112	0x3e61f2f6	0.22065338
113	0xbf1228e3	-0.5709364
114	0x3f93aa4a	1.1536343
115	0xbf159102	-0.5842439
116	0x3ec78df0	0.38975477
117	0x3e896fb8	0.26843047
118	0x3dd18fdb	0.102325164
119	0xbf6d1009	-0.9260259
120	0x3e3e5742	0.18587974
121	0xbec0a017	-0.3762214
122	0xbee35e89	-0.44408062
123	0x3ea036d4	0.3129183
124	0xbe110f05	-0.14165886
125	0xbe2989cf	-0.16556476
126	0xbf88b137	-1.0679082
127	0x3f7b6dce	0.98214424
128	0x3f4d790a	0.80262816
129	0xbe37b5a1	-0.1794038
130	0x3f821f20	1.0165749
131	0x3f048b07	0.5177464
132	0xbd535a3c	-0.051599726
133	0x399c08cb	0.0002976119
134	0xbeaa2e08	-0.33238244
135	0x3e81ef29	0.25377777
136	0xbf4eb3de	-0.80743206
137	0xbf4dc8ab	-0.8038432
138	0xbf57b1d9	-0.8425575
139	0xbe6cad69	-0.23113026
140	0x3e2815b1	0.16414525
141	0xbe70a6f6	-0.2350119
142	0x3f0a9b65	0.54143363
143	0xbe2f8edb	-0.17144339

convolution_2 f4 [16, 1, 1, 16]
0	0xbddf4c70	-0.10903251
1	0x3e9460e6	0.28980178
2	0x3e436d29	0.1908461
3	0xbee477de	-0.446227
4	0xbc0bb2fc	-0.00852656
5	0xbd83d3aa	-0.06436856
6	0xbeb3fbf9	-0.35153177
7	0x3e13851d	0.14406247
8	0x3eea394d	0.45746842
9	0x3ed80aaf	0.4219565
10	0xbd8063c4	-0.06269029
11	0xbefd3cba	-0.49460393
12	0xbdde50ba	-0.10855241
13	0xbe9489e5	-0.29011455
14	0x3e04e121	0.12976505
15	0x3e1265b2	0.14296606
16	0x3d866eea	0.06564124
17	0xbdc0dd5f	-0.09417223
18	0x3dc0453b	0.09388205
19	0xbc0268a4	-0.007959519
20	0xbd12ac22	-0.03580869
21	0x3ca3eb5c	0.020009689
22	0xbca12723	-0.019671982
23	0xbd72b05d	-0.059250224
24	0x3d8fff68	0.07031137
25	0xbda4c5a6	-0.08045511
26	0xbdd5aabd	-0.10432956
27	0x3c876473	0.01652739
28	0x3d690176	0.05688616
29	0x3d491718	0.04909429
30	0xbdad64ae	-0.08466469
31	0x3cdef46d	0.02721616
32	0xbe18409b	-0.14868395
33	0xbe2e3ece	-0.17016146
34	0x3c8b9fae	0.017043915
35	0xbde07204	-0.10959247
36	0x3ded8b0c	0.11598787
37	0x3d381b00	0.044947624
38	0x3d26b3b8	0.040698737
39	0xbde8f363	-0.11374547
40	0x3dade638	0.08491176
41	0x3e6946b4	0.22780877
42	0x3cd54946	0.026035916
43	0xbcd34a46	-0.025792252
44	0x3e3dac7a	0.18522826
45	0x3d1fcae2	0.039011844
46	0xbc8a87a4	-0.016910382
47	0x3c550495	0.013001581
48	0xbd2be011	-0.041961733
49	0x3d9c6843	0.07637074
50	0xbdb9eda4	-0.090785295
51	0xbc6e3d75	-0.01454102
52	0xbd58fee5	-0.05297746
53	0xbcbfff05	-0.023437032
54	0xbcfef4bb	-0.031122556
55	0x3db514ea	0.0884188
56	0xbdad1b0c	-0.084524244
57	0xbd9d6c2f	-0.0768665
58	0xbcb0a629	-0.021563606
59	0xbca042dc	-0.019563131
60	0xbda2f6dc	-0.07957241
61	0xbdbad2cd	-0.09122238
62	0xbc2b8484	-0.010468606
63	0xbd81614b	-0.06317385
64	0xbcab4c8c	-0.020910524
65	0x3e8010e0	0.25012875
66	0xbd7e72fe	-0.062121384
67	0xbdade07e	-0.08490084
68	0x3da32247	0.07965522
69	0x3de78434	0.113045126
70	0xbdd5c46f	-0.10437857
71	0x3ddf1e04	0.10894397
72	0x3d034abc	0.032053694
73	0x3e3a7794	0.18209678
74	0x3e2af046	0.1669322
75	0x3d31630f	0.04330736
76	0x3e6337ca	0.2218925
77	0xbcbddc41	-0.023176314
78	0xbd7d13d6	-0.061786495
79	0x3d3175c7	0.04332521
80	0x3dc99cc9	0.098443575
81	0x3e5c7c94	0.21531898
82	0x3b1b36b5	0.002368373
83	0xbe095213	-0.13410215
84	0xbe3bb0ea	-0.18329206
85	0x3d84a90c	0.06477556
86	0x3d3f9909	0.046776805
87	0x3e554360	0.20826483
88	0x3dd5cb22	0.10439135
89	0xbc79948e	-0.015233172
90	0x3db0582f	0.0861057
91	0xbe8cbe14	-0.27488768
92	0x3d901be1	0.070365675
93	0x3e0f10ce	0.13971254
94	0x3e7286fe	0.23684308
95	0xbe1bb753	-0.15206651
96	0xbd9e3a29	-0.07725937
97	0x3d35e061	0.044403438
98	0xbe586885	-0.21133621
99	0x3e000862	0.12503198
100	0x3e4a0139	0.19727029
101	0xbc9583bb	-0.01825129
102	0x3dc540d1	0.096315034
103	0xbe0915d9	-0.1338724
104	0xbb47dd67	-0.0030496956
105	0x3e0c4f17	0.13702045
106	0x3d37fdbf	0.044919726
107	0xbe09937a	-0.13435164
108	0xbd16c4e9	-0.036808882
109	0xbdbe6e0a	-0.09298332
110	0x3e143583	0.14473538
111	0x3d433b6e	0.0476641
112	0xbe0158ec	-0.12631577
113	0x3e483324	0.19550759
114	0x3c24125e	0.010014145
115	0xbca567b7	-0.020191057
116	0xbe2fc80f	-0.1716616
117	0x3e2e9a67	0.17051087
118	0x3e3a5101	0.18194963
119	0x3cb68900	0.022282124
120	0x3e42511c	0.18976253
121	0x3b16d9ff	0.002301812
122	0x3d8e0c75	0.0693597
123	0xbcb485be	-0.02203643
124	0x3e56cfb9	0.20977677
125	0x3e100d4a	0.1406757
126	0xbcda3222	-0.026635233
127	0x3dea4800	0.11439514
128	0x3c5fdcfe	0.0136635285
129	0x3dc2bf4d	0.09509144
130	0x3e834b5f	0.2564344
131	0x3e453242	0.19257453
132	0xbe556917	-0.2084087
133	0x3dae4f45	0.08511213
134	0xbe1a3b59	-0.15061702
135	0x3d250199	0.040284727
136	0xbe139444	-0.14412028
137	0xbce72c03	-0.028219229
138	0xbd6ab7e9	-0.057304297
139	0xbc371261	-0.0111738155
140	0x3e08aa0a	0.13346115
141	0x3da8209d	0.082093455
142	0x3c561545	0.0130665945
143	0x3c403d38	0.011733346
144	0x3e2f5672	0.1712282
145	0xbd02c460	-0.03192556
146	0xbdb9fd21	-0.09081484
147	0xbbea74cd	-0.007155037
148	0x3e771304	0.24128348
149	0x3e08b0c1	0.13348676
150	0xbd7455cf	-0.059652146
151	0x3e7a52cc	0.24445647
152	0x3dcaee45	0.099087276
153	0x3e88bd07	0.26706716
154	0x3e316269	0.17322697
155	0x3d647ad1	0.05578119
156	0x3d48b7a7	0.04900327
157	0x3dc6548b	0.09684094
158	0x3d4f97c0	0.05068183
159	0x3dd1a3a5	0.10236291
160	0xbb42a85c	-0.00297024
161	0xbe11b95a	-0.14230862
162	0x3cae60e5	0.021286437
163	0x3cd81cb1	0.026380869
164	0xbca7b36e	-0.0204713
165	0x3d70d21a	0.05879412
166	0xbbebb2a4	-0.0071929265
167	0xbda367f3	-0.07978811
168	0xbcd3bc76	-0.025846701
169	0xbd000535	-0.031254966
170	0x3d3e67b7	0.04648563
171	0xbcd93c6c	-0.02651807
172	0x3d530051	0.051513974
173	0xbd07df3d	-0.03317188
174	0x3e1d9b82	0.15391353
175	0x3ce2ba29	0.027676659
176	0x3d4b79eb	0.049676817
177	0x3dc38c47	0.0954824
178	0xbe7440eb	-0.23852889
179	0x3d1b907e	0.037979595
180	0xbd833ef3	-0.06408491
181	0xbe40d608	-0.18831646
182	0x3dff88ef	0.1247729
183	0x3dc1d40d	0.094642736
184	0xbdd20649	-0.10255105
185	0xbe1f3b0b	-0.15549867
186	0x3f06b290	0.52616215
187	0xbe1dc2f8	-0.15406406
188	0xbe0faf5e	-0.14031741
189	0x3e193ef4	0.14965421
190	0x3d859e2a	0.06524308
191	0xbe8a37ac	-0.269956
192	0xbd574728	-0.052558094
193	0xbe944129	-0.28955963
194	0xbe252eb4	-0.16131097
195	0x3da26549	0.07929475
196	0x3e36aad0	0.17838597
197	0xbe02ebe5	-0.12785299
198	0xbd4aabfe	-0.04948043
199	0xbaca0abf	-0.001541458
200	0xbdf3429c	-0.11877939
201	0x3e1e2f6f	0.15447782
202	0xbd9ea3f1	-0.07746113
203	0x3e06b10b	0.13153474
204	0xbd8862dc	-0.06659481
205	0x3c75b668	0.014997102
206	0x3e1cc65d	0.15310045
207	0xbc46cc4d	-0.01213367
208	0xbd8b481f	-0.068008654
209	0xbdd37c31	-0.10326422
210	0x3c5e6ac4	0.01357526
211	0x3d3a5b19	0.045497034
212	0xbcca79c2	-0.024716262
213	0xbd9ccc7d	-0.076561905
214	0x3dcb8620	0.09937692
215	0xbdcf9418	-0.101356685
216	0x3e65babd	0.22434516
217	0x3d8477bf	0.06468152
218	0x3dcbfa4a	0.09959848
219	0x3d4a17b6	0.04933902
220	0x3d9c5bf9	0.0763473
221	0xbda0ee4a	-0.0785795
222	0x3e9067c0	0.28204155
223	0xbd41e4e6	-0.047337435
224	0x3d89ee31	0.067348845
225	0x3e9c7309	0.30556515
226	0x3c8fd23f	0.017556308
227	0xbe361fa6	-0.1778551
228	0x3dd01ad1	0.10161365
229	0x3cffbd07	0.031218065
230	0x3c3ba59d	0.0114530595
231	0xbd8409ee	-0.064472064
232	0x3b70d582	0.0036748354
233	0xbdfda59e	-0.123851046
234	0xbde198e5	-0.110154904
235	0xbce8605d	-0.028366262
236	0x3c8b1061	0.016975584
237	0x3e23f3d9	0.16010989
238	0x3e334537	0.17506872
239	0xbe712c76	-0.23552117
240	0x3dd14ce2	0.10219742
241	0x3e7f0ff5	0.24908431
242	0x3dc1e76c	0.09467968
243	0xbe72ecaf	-0.237231
244	0x3dcfb41a	0.101417735
245	0x3dd208cb	0.102555834
246	0x3e59322f	0.2121055
247	0xbe627960	-0.22116613
248	0xbcaa66e6	-0.020801019
249	0x3e7601f5	0.24024184
250	0x3dc6f795	0.09715191
251	0x3dd801c7	0.10547214
252	0x3cb87b79	0.022519814
253	0x3e556033	0.20837478
254	0x3ddab807	0.10679632
255	0x3e5e5cb6	0.21715054

depthwise_1 f4 [1, 3, 3, 16]
0	0x3f65124d	0.8948105
1	0xbf164aa3	-0.58707637
2	0x3f3cb805	0.7371829
3	0x3f6b46ea	0.9190508
4	0x3f0fe76f	0.56212515
5	0xbf5dd64d	-0.8665512
6	0xbe90bf59	-0.28270987
7	0xbeb5b103	-0.35486612
8	0xbea8876e	-0.32915825
9	0xbf476177	-0.77883095
10	0xbf57b9bb	-0.8426778
11	0xbe509b8b	-0.20371835
12	0xbdd746e1	-0.10511566
13	0x3f5eaf47	0.869862
14	0x3f2ca7f1	0.6744376
15	0xbf52c753	-0.82335395
16	0xbcfd9a19	-0.030957269
17	0x3de68b1b	0.11257001
18	0xbe1223e8	-0.1427151
19	0x3f12c934	0.5733826
20	0xbc9efa7a	-0.019406546
21	0xbf13c67e	-0.5772475
22	0xbdd663a2	-0.10468222
23	0xbdf73f94	-0.120726734
24	0xbdee1805	-0.11625675
25	0xbeca494a	-0.3950904
26	0x3ef3c0d8	0.47608066
27	0x3dba79f1	0.0910529
28	0x3f349117	0.7053389
29	0xbe3287aa	-0.17434564
30	0x3f0ef7a6	0.5584663
31	0xbf67de4c	-0.90573573
32	0xbea1349d	-0.31485453
33	0xbf036c9d	-0.51337606
34	0xbec70be1	-0.3887625
35	0xbead6698	-0.33867335
36	0x3f5ad876	0.85486543
37	0x3e70a82b	0.23501651
38	0x3e872939	0.26398638
39	0x3f0aa317	0.54155105
40	0x3c58edc8	0.013240285
41	0xbf2721b6	-0.65285814
42	0xbf3858ab	-0.72010297
43	0x3edb46d4	0.42827475
44	0xbf2fbf74	-0.6865151
45	0xbe61e109	-0.220585
46	0xbf531464	-0.8245299
47	0xbf3aae2e	-0.7292203
48	0x3f371b85	0.71526366
49	0x3cdc8b17	0.026921792
50	0x3d17b43a	0.03703711
51	0xbc038821	-0.008028061
52	0xbc9ae856	-0.018909615
53	0x3f31bb68	0.69426584
54	0xbd822b1e	-0.0635588
55	0xbf0a1be1	-0.5394879
56	0xbebe9952	-0.3722635
57	0xbc3e7e6c	-0.011626821
58	0x3d63ad24	0.05558504
59	0x3e0e7f9e	0.1391587
60	0x3f056fbf	0.52123636
61	0x3ddcc641	0.107800014
62	0x3e954ab0	0.29158545
63	0x3d3f32b6	0.04667922
64	0x3ea99cbf	0.331274
65	0x3d88f9d0	0.06688273
66	0xbecd2776	-0.4006917
67	0xbe7213d8	-0.23640382
68	0x3dcb95fe	0.09940718
69	0x3ee04290	0.43800783
70	0xbf40fdad	-0.7538708
71	0x3d79b756	0.06096586
72	0x3eb4c068	0.35303044
73	0x3e92cdc1	0.28672603
74	0xbd5c28f3	-0.05374999
75	0x3d97bbb8	0.074088514
76	0xbe1ca00e	-0.15295431
77	0x3ebbd839	0.36688402
78	0x3f05b4fb	0.5222928
79	0x3e313fb7	0.17309462
80	0xbe938055	-0.28808847
81	0xbf0e83dc	-0.5566995
82	0x3e808c8e	0.25107235
83	0x3e1d41d1	0.15357138
84	0x3ef03d47	0.4692175
85	0xba804d09	-0.0009788583
86	0xbef2fa3e	-0.47456545
87	0xbf1bc03d	-0.6084021
88	0x3dfb8edf	0.1228311
89	0x3e6bb752	0.2301915
90	0x3f61bd5d	0.8817957
91	0xbf0d686e	-0.5523747
92	0xbec365a6	-0.3816349
93	0x3e8f7436	0.2801835
94	0x3ef56ac8	0.4793303
95	0x3e2c663a	0.16835871
96	0x3ede75b2	0.4344917
97	0xbf0986ab	-0.5372111
98	0xbc04f82c	-0.008115809
99	0x3ef5e3f7	0.48025486
100	0xbf351a7c	-0.70743537
101	0xbe275606	-0.16341409
102	0x3e1c4b95	0.15263207
103	0xbf6e4891	-0.9307948
104	0xbf2ca575	-0.6743997
105	0xbe59e8f8	-0.21280277
106	0xbf372fad	-0.7155712
107	0xbf3cb369	-0.7371126
108	0xbef83c94	-0.48483717
109	0x3f13ef54	0.5778706
110	0x3e2fe96a	0.17178884
111	0x3eaf5c56	0.34250134
112	0x3eac8134	0.33692324
113	0xbdb18ca9	-0.08669407
114	0x3f2d76f8	0.67759657
115	0x3f1a1b8d	0.6019829
116	0x3e341a9e	0.17588279
117	0x3fb10098	1.3828306
118	0xbebd7ac2	-0.3700772
119	0xbe8cc249	-0.27491978
120	0xbf067885	-0.5252765
121	0xbebf1744	-0.37322438
122	0xbe85e03f	-0.2614765
123	0xbee32a8c	-0.44368398
124	0x3f87f163	1.062054
125	0x3db20042	0.086914554
126	0xbf5fae32	-0.87375176
127	0x3f13bc66	0.5770935
128	0x3ec099e5	0.37617412
129	0x3f024967	0.50893253
130	0x3f2c5a41	0.67325217
131	0xbceda8b8	-0.029011115
132	0x3edb6d96	0.42857045
133	0xbee8aa84	-0.45442593
134	0xbf0f113b	-0.55885667
135	0xbe1f294f	-0.15543102
136	0x3efa59a9	0.4889653
137	0x3e0bd9cd	0.13657303
138	0xbf012e31	-0.5046111
139	0xbeec33db	-0.46133313
140	0xbf2d299e	-0.6764163
141	0xbf13bef1	-0.5771323
142	0xbbaf32af	-0.005346618
143	0x3e66f9cd	0.22556229

convolution_3 f4 [16, 1, 1, 16]
0	0xbf2c2332	-0.67241204
1	0x3d100ebe	0.03517031
2	0xbede40a5	-0.43408695
3	0xbf6ef0de	-0.93336284
4	0xbceb92b3	-0.028756475
5	0xbcc678c9	-0.024227517
6	0xbebce87e	-0.36896127
7	0x3ee37a46	0.44429225
8	0x3d09f8cf	0.033684548
9	0x3d201ddf	0.039090987
10	0xbe1e10e3	-0.1543613
11	0xbe8da1ab	-0.27662405
12	0x3e31879a	0.17336884
13	0xbef100f5	-0.47071043
14	0x3dbd0120	0.0922873
15	0x3a7ccab1	0.00096432405
16	0x3f186976	0.5953592
17	0xbecc6827	-0.39923212
18	0x3d436500	0.047703743
19	0x3e989120	0.29798222
20	0x3d0412b0	0.032244384
21	0xbf060fe9	-0.52368027
22	0xbe609b19	-0.21934165
23	0x3cd5044e	0.02600303
24	0x3c9aa95c	0.018879585
25	0x3e06fced	0.13182421
26	0x3d2e8814	0.042610243
27	0xbe9ec7a2	-0.31011683
28	0xbec9e0e1	-0.3942938
29	0x3e68a57e	0.2271938
30	0xbeb0b740	-0.3451481
31	0xbe7dd46b	-0.24788062
32	0xbf1f5a19	-0.62246853
33	0xbf0449c5	-0.51675063
34	0x3e88ba07	0.26704428
35	0xbe31a6ee	-0.17348835
36	0xbce32cca	-0.027731318
37	0xbe9f6099	-0.31128386
38	0xbcea3351	-0.028588923
39	0xbe89d27a	-0.26918393
40	0x3e8ba722	0.2727595
41	0x3efa2d97	0.48862907
42	0x3e056687	0.13027392
43	0xbdc49a43	-0.095997356
44	0x3ba5a8e7	0.005055535
45	0xbf0510cd	-0.5197876
46	0x3d51aa09	0.05118755
47	0xbf010fc9	-0.5041471
48	0xbdda9635	-0.10673181
49	0x3e0a07f7	0.13479601
50	0x3cbd1b0d	0.023084188
51	0x3eee1ab0	0.46504736
52	0xbd46d3ff	-0.04854202
53	0x3e9d8ae8	0.3077004
54	0xbd3de102	-0.046357162
55	0x3f18c25a	0.59671557
56	0x3e8f3b11	0.27974752
57	0x3dba63eb	0.09101089
58	0x3e650d9b	0.22368471
59	0x3e560eff	0.20904158
60	0xbcea8fd0	-0.028633028
61	0xbee2722c	-0.4422773
62	0x3d28466c	0.041082785
63	0x3e0f6e63	0.14006953
64	0x3e7c3bb5	0.24632151
65	0x3e7d6516	0.24745592
66	0xbed0e572	-0.40800053
67	0xbef4ea87	-0.4783518
68	0x3eecb313	0.46230373
69	0x3ebba83c	0.3665179
70	0xbed11a43	-0.4084035
71	0xbf0d22c3	-0.5513117
72	0xbd075fc5	-0.033050317
73	0x3e31ff3c	0.1738252
74	0xbd849a4d	-0.06474743
75	0x3d49fb63	0.049312007
76	0xbe4e00ae	-0.20117447
77	0xbe501626	-0.20320949
78	0x3d84f17f	0.06491374
79	0x3dd4039c	0.10352251
80	0x3d4c34fd	0.04985522
81	0x3f3758db	0.7161996
82	0x3ec605b7	0.38676235
83	0xbc6ab2dd	-0.014324871
84	0x3f31bf02	0.6943208
85	0x3db89bef	0.09014117
86	0x3ca95e48	0.02067484
87	0x3ed1f4b6	0.41007012
88	0xbc765ea4	-0.0150372125
89	0xbdb7bff8	-0.08972162
90	0x3f1b8091	0.6074305
91	0xbe0cafcc	-0.13738936
92	0xbf0eb6ba	-0.5574757
93	0xbe788c28	-0.24272215
94	0x3e5fc13a	0.21851054
95	0x3ea48c13	0.32138118
96	0x3f8bb371	1.0914136
97	0xbe9a41c1	-0.3012829
98	0xbe9383d4	-0.28811514
99	0xbf546165	-0.8296111
100	0x3eda9724	0.42693436
101	0xbf070497	-0.5274138
102	0xbf45a907	-0.7721104
103	0xbeb4971b	-0.35271534
104	0xbefd03e5	-0.49417034
105	0x3f69fe07	0.9140324
106	0xbed82f92	-0.42223793
107	0xbf763b2c	-0.9618404
108	0x3f246fd0	0.6423311
109	0xbe8aee16	-0.2713477
110	0x3ee298c2	0.4425717
111	0xbf059d91	-0.5219355
112	0x3d742031	0.059601013
113	0x3f39e74d	0.7261856
114	0xbee7a98b	-0.4524654
115	0xbeda5d05	-0.42649093
116	0xbf0f8f60	-0.5607815
117	0x3dbf01f3	0.09326544
118	0xbe7d3276	-0.2472628
119	0xbf210df1	-0.629119
120	0xbea3433e	-0.3188724
121	0xbe0315e3	-0.12801318
122	0xbf28fbbf	-0.66009134
123	0x3e6bf0b1	0.23041035
124	0x3d3abcd9	0.045590255
125	0xbeb91443	-0.3614827
126	0xbed21477	-0.41031238
127	0xbe7c6dd8	-0.24651277
128	0x3ebac024	0.36474717
129	0x3d1c1127	0.038102295
130	0xbec3372d	-0.38128033
131	0x3e78a1a6	0.24280414
132	0x3e6688fe	0.22513196
133	0xbe956787	-0.29180548
134	0xbee477cd	-0.4462265
135	0xbf0c1ed2	-0.5473453
136	0x3d1e228a	0.038607158
137	0x3dd0ee1e	0.10201667
138	0x3f2ccbc5	0.6749843
139	0x3f45ae18	0.7721877
140	0x3ef4c2f7	0.47804996
141	0x3eaa4076	0.33252305
142	0xbefbd152	-0.49183136
143	0x3daaa3cf	0.08332025
144	0x3d92ee78	0.071743906
145	0x3f298bbe	0.66228855
146	0x3e01c0a9	0.1267115
147	0xbedb217a	-0.42798978
148	0xbe5958db	-0.21225302
149	0xbddb5c5d	-0.10710976
150	0x3ea594fb	0.32340226
151	0xbd4d4cac	-0.050121948
152	0xbecfd333	-0.4059082
153	0x3e563577	0.20918833
154	0x3e922e1d	0.28550807
155	0x3e6c263f	0.23061465
156	0x3e911f06	0.28343982
157	0x3e1fa744	0.1559115
158	0x3d9c172c	0.07621607
159	0xbdc42632	-0.09577598
160	0xbe6bad06	-0.23015222
161	0xbe159f12	-0.14611462
162	0xbe069a9d	-0.13144918
163	0xbe38e677	-0.18056665
164	0xbeb49533	-0.3527008
165	0xbf2fb5bd	-0.68636686
166	0x3da70566	0.081553265
167	0xbeb3d111	-0.35120443
168	0x3e9fac58	0.31186175
169	0xbed29cf3	-0.41135368
170	0xbf2dbc9f	-0.6786594
171	0x3e0faa0a	0.14029709
172	0xbe8ce253	-0.27516422
173	0xbd6fc723	-0.05853952
174	0xbed31e7f	-0.41234204
175	0x3da1dda5	0.079036035
176	0x3d30b723	0.043143403
177	0xbceebcba	-0.029142726
178	0xbeb633eb	-0.35586485
179	0x3e510fda	0.20416203
180	0x3e4b3a65	0.19846494
181	0xbe8aea53	-0.271319
182	0x3eb78d94	0.35850203
183	0xbf605f6e	-0.87645614
184	0x3d9ed229	0.077549286
185	0x3d82a195	0.063784756
186	0xbf6cd953	-0.9251911
187	0xbf1beeed	-0.60911447
188	0xbe06f919	-0.1318096
189	0xbd6a9eb8	-0.057280272
190	0xbe864382	-0.2622338
191	0xbf83d6d6	-1.0299938
192	0xbdb493f6	-0.08817284
193	0x3f73bf50	0.95213795
194	0x3ee51915	0.447457
195	0xbe2e1143	-0.16998772
196	0x3ec6cc47	0.38827726
197	0xbf306c54	-0.68915296
198	0x3e933f68	0.28759313
199	0x3f18f637	0.59750694
200	0xbe3259ec	-0.17417115
201	0xbc22efb8	-0.009944849
202	0x3f4dfb8c	0.80461955
203	0x3e875205	0.26429763
204	0xbed01ae7	-0.40645525
205	0xbd5ddbdf	-0.054164764
206	0xbaa7094b	-0.0012743858
207	0xbed1f89e	-0.41009992
208	0x3dfb1694	0.12260166
209	0x3cdbab5f	0.026815115
210	0x3f0b64b0	0.5445051
211	0xbe89a581	-0.26884082
212	0x3fa1ece7	1.2650422
213	0xbee1b88f	-0.4408612
214	0x3f894f4b	1.0727323
215	0x3e69cabd	0.22831245
216	0x3f01e5ef	0.50741476
217	0xbee1c8d6	-0.44098538
218	0x3ebd07ff	0.36920163
219	0xbf51bf80	-0.8193283
220	0xbe3449e2	-0.17606309
221	0x3f15013d	0.58205014
222	0xbd819abd	-0.06328342
223	0x3e7d057f	0.24709128
224	0x3f439a8b	0.7640769
225	0x3ec644fa	0.387245
226	0x3e6b61d0	0.22986531
227	0x3eae3bdc	0.34030044
228	0xbee20fb5	-0.4415261
229	0x3f36d57e	0.71419513
230	0x3f075ee7	0.52879184
231	0x3eb5a67e	0.35478586
232	0x3f0f875d	0.5606592
233	0x3e8a1d6f	0.2697558
234	0x3ea5a15a	0.32349664
235	0xbefc4d3d	-0.49277678
236	0x3e8bc0a4	0.2729541
237	0xbec45a66	-0.3835022
238	0x3e3a652b	0.18202655
239	0x3f72320f	0.94607633
240	0xbccce61c	-0.025012068
241	0x3e3d9f79	0.18517865
242	0x3efe4d20	0.49668217
243	0x3ed6bfa8	0.41943097
244	0xbe9f5a7e	-0.31123728
245	0x3f030975	0.51186305
246	0x3e59af80	0.21258354
247	0xbd559114	-0.05214031
248	0xbf0c6eb8	-0.54856443
249	0x3e8bd32c	0.2730955
250	0x3f186561	0.5952969
251	0xbe01a652	-0.12661102
252	0x3d57a852	0.052650757
253	0x3df2c1ed	0.11853395
254	0xbf02f147	-0.5114941
255	0x3e5b0004	0.21386725

depthwise_2 f4 [1, 3, 3, 16]
0	0x3d926ca8	0.07149631
1	0x3ecc9d49	0.3996375
2	0x3c225bce	0.009909583
3	0xbf6ec899	-0.9327484
4	0xbebadf99	-0.36498716
5	0xbece6ca9	-0.40317276
6	0xbd4c582a	-0.049888767
7	0xbf36f4b6	-0.7146715
8	0x3f56cdd7	0.83907837
9	0xbf1c1a59	-0.60977703
10	0xbebbb154	-0.36658728
11	0xbf53ca24	-0.8273032
12	0x3d2fd425	0.042926926
13	0xbe59214b	-0.21204107
14	0x3ea407e2	0.32037264
15	0xbf7a2e6e	-0.97727096
16	0xbe36a5d6	-0.17836699
17	0xbd9f87e3	-0.0778959
18	0xbeb63f4c	-0.35595167
19	0xbe819d6b	-0.25315413
20	0x3e56da5d	0.20981736
21	0xbf17e0f9	-0.59327656
22	0x3f249890	0.6429529
23	0xbe6b4593	-0.22975759
24	0xbe08192a	-0.1329085
25	0x3e86bcd3	0.26315936
26	0x3df1878e	0.11793433
27	0x3dc1e141	0.09466792
28	0xbf495fe4	-0.7866194
29	0x3dfc654e	0.1232401
30	0xbd4a5bbd	-0.049403895
31	0xbe427509	-0.18989958
32	0x3e189695	0.14901192
33	0xbe73ae41	-0.23796941
34	0xbf22a143	-0.63527316
35	0x3efd46aa	0.49467975
36	0xbe574aee	-0.21024677
37	0xbecebe0c	-0.4037937
38	0x3e2a2f97	0.16619717
39	0xbf4d576b	-0.80211514
40	0xbeffa06b	-0.49927077
41	0x3f8115cd	1.0084778
42	0xbe94ec9c	-0.2908677
43	0x3f161ec4	0.58640695
44	0xbee065a4	-0.43827546
45	0x3f049e40	0.5180397
46	0xbd2bcfd1	-0.041946236
47	0xbe37e4d6	-0.17958388
48	0xbe196424	-0.14979607
49	0x3db77e84	0.08959678
50	0xbf07899d	-0.52944356
51	0xbeec8821	-0.46197608
52	0xbed1b541	-0.40958598
53	0x3f368cc0	0.7130852
54	0xbecc9df7	-0.39964268
55	0x3e61ac15	0.220383
56	0xbf090036	-0.53515947
57	0xbf02df54	-0.5112202
58	0xbf34eb9a	-0.70672
59	0xbe9bd87a	-0.30438596
60	0x3ebd62de	0.36989492
61	0xbdaa8564	-0.083262235
62	0x3fa3a974	1.2786088
63	0x3de0a707	0.10969358
64	0x3e731a07	0.23740397
65	0x3e10202a	0.1407477
66	0xbe1d240a	-0.15345779
67	0xbe4a4b9e	-0.19755408
68	0x3f5e187a	0.867561
69	0xbe87728f	-0.2645459
70	0x3e1be184	0.15222746
71	0x3f1d814b	0.6152541
72	0xbe8207f0	-0.2539668
73	0x3e7173f3	0.23579387
74	0xbdb97803	-0.090560935
75	0xbe439b66	-0.19102249
76	0x3e2540e4	0.16138035
77	0xbea39488	-0.31949258
78	0xbf1b8f46	-0.6076549
79	0xbed0a424	-0.4075023
80	0x3d94a8ad	0.07258735
81	0x3f21766a	0.6307131
82	0xbd3db780	-0.046317577
83	0x3e326343	0.17420678
84	0xbef16052	-0.471438
85	0x3dc5edb0	0.09664476
86	0xbea01a62	-0.31270128
87	0xbe0690d9	-0.13141192
88	0xbf4fe363	-0.8120634
89	0x3e92aca2	0.28647333
90	0xbe1c5577	-0.15266977
91	0xbe7234dc	-0.23652977
92	0x3e87f83c	0.26556575
93	0xbf11d85d	-0.5697077
94	0x3e169649	0.14705767
95	0x3e536855	0.20645268
96	0x3fcc93e2	1.598263
97	0x3e248f88	0.16070378
98	0xbefde625	-0.4958965
99	0xbed0515c	-0.40687072
100	0xbf56faed	-0.8397663
101	0xbf20160e	-0.6253365
102	0x3f8aff6d	1.08592
103	0x3e488a2b	0.19583957
104	0x3f268072	0.6503974
105	0x3eb4f3e1	0.35342315
106	0x3e96f7ae	0.2948584
107	0xbf2119ff	-0.6293029
108	0xbf9d964e	-1.2311494
109	0xbf0fc4b9	-0.5615955
110	0xbf5c8830	-0.86145306
111	0xbe23b969	-0.15988697
112	0x3e4137ac	0.18868893
113	0x3e4dc4a1	0.20094539
114	0xbd2a797b	-0.04161976
115	0x3f15469b	0.5831086
116	0xbc39bf9a	-0.011337185
117	0x3e89de04	0.26927197
118	0xbd763a3f	-0.06011414
119	0xbeaf7766	-0.3427078
120	0xbdbfd572	-0.09366883
121	0x3f12cae1	0.5734082
122	0xbe13acc1	-0.14421369
123	0x3f2c1df4	0.67233205
124	0x3eb7e2af	0.35915133
125	0xbec61bd7	-0.38693115
126	0xbea3234c	-0.31862867
127	0x3e3b7ef2	0.18310145
128	0xbec20158	-0.3789165
129	0x3e67bdf0	0.22631049
130	0x3f59aa09	0.8502508
131	0xbe30646e	-0.17225811
132	0xbf555574	-0.83333516
133	0xbec6815b	-0.38770565
134	0xbd95220c	-0.072818846
135	0xbe39c5d1	-0.18141867
136	0x3e8f2410	0.279572
137	0xbe327d47	-0.17430602
138	0xbeac7723	-0.33684644
139	0x3e029f5e	0.12756106
140	0xbe8b99bd	-0.2726573
141	0x3daa6f52	0.08322014
142	0x3d98f04f	0.0746771
143	0xbe0a21bb	-0.1348943

convolution_4 f4 [16, 1, 1, 16]
0	0x3f0b0c06	0.5431522
1	0x3df3e310	0.11908543
2	0x3dfc930e	0.12332736
3	0xbba6dafb	-0.0050920225
4	0x3df348fc	0.11879155
5	0xbdd8faca	-0.10594709
6	0x3e27f565	0.16402204
7	0x3edaca69	0.42732552
8	0xbdba8bf5	-0.09108726
9	0x3d5edc5c	0.05440937
10	0x3e2b44ec	0.1672551
11	0x3e1afe6c	0.15136117
12	0xbdc1a9d1	-0.09456218
13	0x3db19847	0.08671623
14	0xbec76b5e	-0.38949102
15	0xbeb8280e	-0.3596806
16	0x3f0a309d	0.5398043
17	0x3f37ce39	0.71799046
18	0x3e7cfc19	0.24705543
19	0x3f332bc3	0.6998865
20	0xbf5e6dac	-0.86886096
21	0x3e859eeb	0.26097807
22	0xbefe0a14	-0.49617064
23	0xbded91c5	-0.11600069
24	0x3e165e15	0.14684327
25	0xbc88c6a7	-0.016696287
26	0x3f4ac26b	0.7920291
27	0xbeb23257	-0.3480403
28	0xbe0c64de	-0.13710353
29	0x3eccc236	0.3999192
30	0xbe71f1c9	-0.2362739
31	0xbdcf925d	-0.101353385
32	0x3e0f1379	0.13972272
33	0xbe7025d6	-0.23451933
34	0x3daba2ad	0.08380637
35	0xbd46b88e	-0.04851585
36	0xbcd4e92e	-0.025990095
37	0x3d226d63	0.0396551
38	0x3cd62616	0.026141208
39	0xbe0e4ac0	-0.13895702
40	0xbc9d33d7	-0.019189758
41	0xbd7cf2cb	-0.061754983
42	0x3e28df01	0.16491319
43	0xbdaec1cb	-0.08533057
44	0x3dbde172	0.09271516
45	0x3f066b7f	0.52507776
46	0xbe1e663f	-0.15468691
47	0x3d0c338d	0.03422885
48	0x3d235a1a	0.03988085
49	0xbe59b1d2	-0.2125924
50	0x3ed7a3a1	0.42117026
51	0x3e812ea3	0.25230893
52	0xbe877c8d	-0.26462212
53	0x3f1f9d8b	0.62349766
54	0x3e38b217	0.18036686
55	0xbb9e39df	-0.004828676
56	0xbe6db726	-0.23214397
57	0xbddf27a6	-0.10896234
58	0xbe835944	-0.25654042
59	0x3dc90162	0.09814717
60	0x3b1f34e3	0.0024292998
61	0x3e1600f2	0.14648798
62	0xbe429fbc	-0.19006246
63	0x3966aabb	0.00021998111
64	0xbe153cbb	-0.14573948
65	0xbf5380a9	-0.82618195
66	0xbf43bdb9	-0.7646137
67	0x3eeb42cc	0.459494
68	0xbf0fbfd1	-0.56152064
69	0x3e9f7556	0.31144208
70	0xbf4f2cda	-0.80927813
71	0xbe853d4e	-0.26023334
72	0xbee1ef5e	-0.44127935
73	0xbe1b86c9	-0.15188135
74	0x3e2af181	0.16693689
75	0xbe0b7db8	-0.13622177
76	0xbe758f9d	-0.23980565
77	0x3f0f272e	0.5591916
78	0x3e04f6e2	0.12984803
79	0xbe8f1bbd	-0.2795085
80	0xbe7dbf91	-0.24780108
81	0xbe6092e0	-0.21931028
82	0xbe36285f	-0.17788838
83	0x3c1a0086	0.009399539
84	0xbe20b778	-0.15694988
85	0xba915401	-0.0011087657
86	0xbcba0bed	-0.022710765
87	0x3dab3896	0.08360402
88	0x3e272b59	0.1632513
89	0x3bfe1334	0.007753754
90	0x3ecd260a	0.40068084
91	0x3e179d88	0.14806187
92	0xbe25df75	-0.16198523
93	0xbe5c1c9e	-0.21495292
94	0xbdb86d6f	-0.09005248
95	0xbedb00c6	-0.42774028
96	0x3ead9b75	0.33907667
97	0x3ee8c6fa	0.45464307
98	0xbf22ac0d	-0.6354378
99	0x3e9748ee	0.29547828
100	0xbf2eb1dc	-0.6824014
101	0x3f535664	0.82553697
102	0xbe928d45	-0.28623405
103	0x3f093787	0.53600353
104	0x3f094009	0.53613335
105	0x3f64f934	0.89442754
106	0x3f79804b	0.97461385
107	0x3f318364	0.6934111
108	0x3f3def1a	0.74192965
109	0xbe3f9859	-0.1871046
110	0x3f010f36	0.50413835
111	0x3f30a58c	0.69002604
112	0xbf47b720	-0.780138
113	0xbd03016d	-0.03198378
114	0x3e7b2a29	0.24527802
115	0x3eb41dc5	0.35178962
116	0xbd089c5a	-0.033352233
117	0xbf05f88b	-0.5233237
118	0xbed80204	-0.42189038
119	0x3ed6fc5a	0.41989404
120	0x3f6fb39b	0.9363343
121	0x3d6f2ebd	0.058394182
122	0x3eef5f5b	0.46752438
123	0x3d6cd430	0.057819545
124	0x3f6f93d6	0.93584955
125	0x3dd1f1bd	0.10251186
126	0xbee3465c	-0.44389617
127	0x3ee20be4	0.44149697
128	0x3d26ddd8	0.04073891
129	0x3f0191c2	0.50613034
130	0x3e535f1e	0.20641753
131	0xbee1e8a8	-0.44122815
132	0x3f16b83f	0.5887489
133	0x3dbcb79e	0.0921471
134	0x3f88fd98	1.0702391
135	0xbea5ec79	-0.32406977
136	0x3e5f55aa	0.21810022
137	0x3ea4cb57	0.32186386
138	0x3e76e3f4	0.24110395
139	0xbeb3180c	-0.34979284
140	0xbebbf057	-0.36706802
141	0x3e9ddcf5	0.3083264
142	0x3d287481	0.04112673
143	0x3ec972ce	0.39345402
144	0x3eb4a598	0.35282588
145	0xbcd58cfe	-0.026068207
146	0x3e7cdca9	0.2469355
147	0xbcee2dad	-0.029074514
148	0x3e57718b	0.21039407
149	0xbe81ef8d	-0.25378075
150	0x3e997475	0.29971662
151	0x3e1f73fc	0.15571588
152	0xbe1f41e9	-0.15552486
153	0xbe840a5a	-0.25789148
154	0x3c2415bb	0.010014947
155	0xbefc429e	-0.49269575
156	0x3e32fc23	0.17478995
157	0x3ddbc6f3	0.10731306
158	0x3da4079f	0.08009266
159	0xbe3aebf0	-0.18254066
160	0x3f0bfadb	0.5467965
161	0xbd0747ee	-0.033027582
162	0xbe114c78	-0.14189327
163	0xbe56a92a	-0.20962968
164	0x3eba1e08	0.36351037
165	0x3e06f37c	0.1317882
166	0x3de810d5	0.113313355
167	0xbe9b14fd	-0.3028945
168	0xbd0ae1eb	-0.03390686
169	0x3da9d065	0.08291701
170	0xbde70769	-0.1128071
171	0xbc5ed897	-0.013601444
172	0x3e424083	0.18969922
173	0xbe43a660	-0.19106436
174	0xbdb7eda7	-0.089808755
175	0xbe06939f	-0.1314225
176	0xbdd39574	-0.1033124
177	0xbe9a17bb	-0.3009623
178	0x3d983a14	0.074329525
179	0x3eba781c	0.3641976
180	0xbe49209b	-0.19641344
181	0x3e08ff4d	0.1337864
182	0x3dd9c7b1	0.10633791
183	0x3ea3beff	0.31981656
184	0xbe36dc1f	-0.17857407
185	0x3ebd82ca	0.37013847
186	0xbee9f940	-0.45697975
187	0xbe825a92	-0.25459725
188	0xbf0c1bee	-0.5473012
189	0xbddc0b60	-0.10744357
190	0x3d82d781	0.0638876
191	0xbebbd403	-0.3668519
192	0xbe3f91fe	-0.18708035
193	0x3dd403fd	0.10352323
194	0x3f189dc4	0.5961573
195	0xbde321dc	-0.110904425
196	0x3f1b0dd9	0.60568005
197	0x3e041993	0.12900381
198	0x3e040eb0	0.12896228
199	0x3d0abd6b	0.03387205
200	0x3e0a5e9a	0.1351265
201	0x3e55a0c9	0.20862116
202	0x3ec4f1e1	0.3846579
203	0x3e937943	0.28803453
204	0xbd973d52	-0.07384743
205	0x3efdfb22	0.49605662
206	0xbeb3c8b2	-0.35114056
207	0x3ea9771f	0.33098695
208	0x3e2a944a	0.1665813
209	0xbdcdb844	-0.100449115
210	0x3eb2a835	0.34893957
211	0x3e3cb060	0.18426657
212	0x3ed466e2	0.41484743
213	0xbe26e9b0	-0.16300082
214	0x3dc1f20e	0.094699964
215	0xbd5f2a60	-0.05448377
216	0x3d3343df	0.0437659
217	0xbedf37e1	-0.4359732
218	0x3eede4bf	0.46463582
219	0xbee8dba9	-0.45480087
220	0x3d3da7bc	0.046302542
221	0x3e3220c4	0.17395312
222	0xbdce0a3f	-0.10060548
223	0x3ee4cf74	0.44689524
224	0xbf074252	-0.5283557
225	0xbdc302b6	-0.095220014
226	0x3d81f143	0.06344845
227	0x3c52f419	0.01287558
228	0x3e73387c	0.23752016
229	0x3df2797b	0.11839577
230	0x3e1993f9	0.14997853
231	0x3e21154f	0.15730785
232	0xbe839c80	-0.25705338
233	0xbcaa6bb0	-0.020803303
234	0xbe2e2e58	-0.17009866
235	0xbc93accd	-0.018026734
236	0xbe4464e5	-0.19179113
237	0x3ddcc4c4	0.107797176
238	0x3c5e0613	0.013551253
239	0x3ee8e620	0.4548807
240	0x3d25045f	0.04028737
241	0x3e41e914	0.18936568
242	0x3e684ed8	0.22686327
243	0xbe98e317	-0.29860756
244	0x3cf6f231	0.030144783
245	0xbda346e2	-0.07972504
246	0x3e499012	0.19683865
247	0xbc2b559d	-0.0104574235
248	0xbdbae8ef	-0.0912646
249	0xbea39d2b	-0.31955847
250	0x3e8d2298	0.27565455
251	0x3daacdce	0.083400354
252	0xbe7b0528	-0.24513686
253	0x3e2e1b8a	0.17002693
254	0xbdf0bbc4	-0.117545635
255	0x3dcb9359	0.09940214

depthwise_31 f4 [1, 3, 3, 16]
0	0xbf28af2c	-0.6589229
1	0x3ec7876f	0.38970515
2	0x3f04c6ba	0.5186573
3	0x3ec20ff5	0.379028
4	0xbf214d5d	-0.6300867
5	0xbe9d0103	-0.30664834
6	0xbf94769e	-1.1598699
7	0xbf8174f0	-1.0113811
8	0xbed08181	-0.40723804
9	0x3d6491c8	0.05580309
10	0x3f417f85	0.75585204
11	0x3eebb8b5	0.46039358
12	0x3f2103aa	0.62896216
13	0xbb8df462	-0.004332111
14	0xbe047ae3	-0.12937503
15	0x3b259199	0.0025263785
16	0xbac19cec	-0.0014771498
17	0xba31ecf0	-0.00067873206
18	0x3ea089a9	0.31355026
19	0x3e9b500b	0.30334505
20	0x3eacc22d	0.33741894
21	0xbe010a5b	-0.12601607
22	0x3f40c73a	0.75303996
23	0x3f1dbb46	0.6161388
24	0x3fa60103	1.2969059
25	0xbe84bb6f	-0.2592425
26	0x3e04fc98	0.12986982
27	0xbd945227	-0.07242232
28	0xbdf54b4b	-0.119772516
29	0x3ecd18ba	0.40057927
30	0xbdb13015	-0.08651749
31	0x3eb6b74a	0.35686713
32	0xbeca852e	-0.39554733
33	0x3f158ecd	0.5842102
34	0x3e02d4b0	0.12776446
35	0x3e988782	0.29790884
36	0xbd292e5c	-0.041303977
37	0xbe4d3d8d	-0.20043011
38	0xbf6bcfb7	-0.9211382
39	0xbea8deda	-0.32982522
40	0xbe8195ab	-0.253095
41	0xbe241ffa	-0.16027823
42	0x3f055000	0.52075195
43	0x3edd9776	0.43279618
44	0x3e339988	0.17539036
45	0xbadbe28c	-0.001677589
46	0xbf01d02c	-0.5070827
47	0x3f04a080	0.51807404
48	0xbe4a50a7	-0.19757329
49	0x3d8ad6ed	0.06779275
50	0x3ea757d6	0.326842
51	0x3e7d27a1	0.24722148
52	0xbe9f4e60	-0.31114483
53	0xbdcf0376	-0.10108082
54	0x3f90d95a	1.131633
55	0x3e9ac5a6	0.3022892
56	0x3f276567	0.653891
57	0xbeaefbf4	-0.341766
58	0x3eb2671e	0.34844297
59	0x3b779d42	0.0037782942
60	0xbc957eda	-0.018248964
61	0x3e8d734b	0.27627024
62	0x3dc25b5f	0.09490084
63	0xbd42f462	-0.047596343
64	0x3e5ed0f0	0.21759391
65	0xbda5dd06	-0.080987975
66	0xbe2cd4a9	-0.16877998
67	0x3da9f322	0.08298327
68	0x3ea5747c	0.32315433
69	0xbf2349f0	-0.63784695
70	0xbeb37116	-0.35047215
71	0x3e66e261	0.22547294
72	0xbfa0ca84	-1.2561803
73	0xbd30fb96	-0.04320868
74	0x3aeb70c4	0.0017962684
75	0xbe32644b	-0.17421071
76	0xbec91b4a	-0.39278632
77	0x3da27327	0.0793212
78	0xbd2d36a9	-0.042288456
79	0x3e3813d4	0.17976314
80	0xbdad7a66	-0.08470611
81	0xbd7fb007	-0.062423732
82	0x3de15c1d	0.11003897
83	0xbe3dc291	-0.18531252
84	0xbf1b83ff	-0.60748285
85	0xbce36a01	-0.027760508
86	0x3f356d0c	0.7086952
87	0xbde10299	-0.109868236
88	0xbd9f5bc2	-0.07781173
89	0x3bf0a631	0.0073440303
90	0xbecc52f9	-0.39907053
91	0x3e711ea4	0.23546845
92	0x3dd0bf68	0.10192758
93	0x3eaa828a	0.33302718
94	0xbabf419a	-0.0014591694
95	0x3dec40b6	0.1153578
96	0xbee3a388	-0.44460702
97	0x3eded4d6	0.43521756
98	0x3e796580	0.24355125
99	0x3e83cac4	0.25740635
100	0xbf5761b3	-0.8413345
101	0x3e8404e3	0.25784978
102	0xbf72918d	-0.9475334
103	0xbef64551	-0.4809976
104	0xbedfade5	-0.43687358
105	0x3f74aa64	0.95572495
106	0x3e8a94df	0.27066705
107	0x3df370a2	0.118867174
108	0xbea22459	-0.31668356
109	0x3e948025	0.29004017
110	0xbe3b386a	-0.18283239
111	0x3dec8bc2	0.11550094
112	0x3e1c2d48	0.15251648
113	0x3db16097	0.08661001
114	0x3d073561	0.03300989
115	0x3cfff9fd	0.031247133
116	0x3eaea31e	0.34108824
117	0xbe3a2241	-0.1817713
118	0x3f43fe1d	0.7655962
119	0x3cc2e044	0.023788579
120	0xbe0f0a71	-0.13968827
121	0x3efdf792	0.49602944
122	0xbecc96f4	-0.39958918
123	0xbdba7ba0	-0.09105611
124	0xbdcbdfe5	-0.09954814
125	0x3e73a922	0.23794988
126	0xbda208fc	-0.0791187
127	0x3e614aa1	0.22001125
128	0x3e86afa5	0.2630588
129	0x3ef5293b	0.4788302
130	0x3e0ed8c9	0.13949884
131	0xbcdfedc0	-0.027335048
132	0x3e5e9ff1	0.217407
133	0x3f5c7ac9	0.86124855
134	0xbf3df400	-0.7420044
135	0xbe3fc70c	-0.18728274
136	0x3f20e8d5	0.62855273
137	0x3e0738f2	0.13205317
138	0x3d259f81	0.040435318
139	0x3df3b2f4	0.11899367
140	0xbf3c232c	-0.7349117
141	0x3ed75dd3	0.4206377
142	0xbe19bc7e	-0.1501331
143	0x3ddc3639	0.1075253

convolution_5 f4 [3, 1, 1, 16]
0	0xc0f4eda6	-7.65401
1	0x41530322	13.188265
2	0x405725d9	3.361685
3	0x416ce9bc	14.807064
4	0xc1f48b08	-30.567886
5	0xc0d2c457	-6.5864673
6	0x41320761	11.1268015
7	0xbe6fff65	-0.23437269
8	0x419c749a	19.556934
9	0x4192392c	18.277916
10	0xc0eba79e	-7.364211
11	0xc08786fd	-4.235228
12	0xc19ca27f	-19.579344
13	0xc11766d8	-9.462608
14	0xc044926b	-3.0714366
15	0xc16125e9	-14.071755
16	0xc09d1a73	-4.9094787
17	0xc1b27411	-22.306673
18	0xc1568aaa	-13.408854
19	0xbeebfebc	-0.46092784
20	0x40885900	4.2608643
21	0x40b39fe7	5.6132693
22	0xbf478bb7	-0.7794756
23	0xc1dd4cc3	-27.662481
24	0xbf0244e4	-0.5088637
25	0xc119c84b	-9.6114
26	0xc0e9fecf	-7.3123546
27	0x41474b83	12.4559355
28	0x3f206c1b	0.62664956
29	0x415a86c2	13.6579
30	0x414a737c	12.653194
31	0xbfea2a2b	-1.8294119
32	0x4189ec8c	17.240501
33	0x412e34b3	10.887866
34	0x4178b31a	15.543726
35	0xc10e31b4	-8.887135
36	0x41605448	14.0205765
37	0xc16923ee	-14.571272
38	0xc2a20953	-81.01821
39	0x411bb083	9.730594
40	0x3f362ee0	0.71165276
41	0xbf8988d0	-1.0744877
42	0x418448ad	16.535486
43	0xc10e0c5f	-8.87802
44	0x41451dee	12.319807
45	0xc0df457f	-6.9772334
46	0xc125460d	-10.329602
47	0x414660a6	12.398596
