xiaomi13/proprietary/odm/overlayfs/nuwa/odm/firmware/water_check.tflite (tflite, 14272 bytes, 17 tensors)

mul f4 [1, 3]
000000 0a d7 23 3c e5 f2 a3 40 0a d7 23 3c
       0.01 5.1234 0.01

Const_12 f4 [16]
000000 1e 92 25 c0 10 69 c5 bc d6 18 5c bf 53 b9 6c 3e
       -2.5870433 -0.02409795 -0.85975397 0.2311757
000010 7d d0 02 be b0 e3 e0 be 38 dd 38 bf b6 c4 15 be
       -0.12774844 -0.43923712 -0.72212553 -0.1462582
000020 7e 5a fd be 59 83 a3 3f 04 4c f0 3d f6 c9 ee be
       -0.49483103 1.2774459 0.11733249 -0.4663846
000030 a2 d1 ca 3e f6 dd 8f 3f 32 24 1b 3f a0 51 b8 3e
       0.39613062 1.1239612 0.60602105 0.35999775

Const_15 f4 [3]
000000 46 9d 0e c1 68 00 d0 40 5c 2a a2 bf
       -8.913397 6.5000496 -1.2669177

Const_3 f4 [16]
000000 3e b8 38 bd fe fb 74 bd 98 0c a2 bd 70 67 59 3c
       -0.045097582 -0.05981063 -0.07912558 0.01326929
000010 45 1b 44 3f c9 15 c4 bd d3 ac 96 3d 2a 33 e3 3c
       0.7660411 -0.09574468 0.07357182 0.027734358
000020 46 88 a1 bc 36 03 3d bd 04 d0 90 3e 31 a1 ac 3e
       -0.0197183 -0.04614564 0.28283703 0.3371673
000030 4d e2 03 be 9e 5b 40 3d f9 a8 db 3e 99 78 ed bd
       -0.12879296 0.046962373 0.42902353 -0.11595268

Const_6 f4 [16]
000000 26 d7 5c be 02 59 85 3f 27 2d cf 3e f0 9b 50 3f
       -0.21566448 1.0417788 0.40464136 0.8148794
000010 f6 07 11 bf 15 62 d8 3e 78 90 54 3e fe 57 68 be
       -0.5665277 0.4226233 0.20758235 -0.22689816
000020 79 ff cf be cb e4 d6 be 8d 92 66 3f ca 71 9f bf
       -0.40624598 -0.4197143 0.9006737 -1.2456601
000030 d2 d8 7c 3f d3 60 d5 be 6c 48 2c bf 67 91 3e bf
       0.9876834 -0.41675434 -0.67298007 -0.74440616

Const_9 f4 [16]
000000 dc a8 2e 3d 88 de d3 be 83 4d a3 be 18 02 cf be
       0.042641506 -0.41380715 -0.31895074 -0.40431285
000010 a6 8c 02 bf fa ca a1 bf f5 a0 4a bf 0c f8 fe 3e
       -0.5099586 -1.2640069 -0.7915185 0.4979862
000020 90 c4 bb be 2c 2d c1 3e 58 d6 5b 3f 5b 62 1b bf
       -0.36673403 0.37729776 0.8587394 -0.60696954
000030 26 79 ff 3e 3a f9 21 3e 38 33 1d 3f 71 d0 2e bf
       0.49897116 0.15817729 0.6140628 -0.68286806

convolution1 f4 [1, 3, 3, 1]
000000 35 5a 15 bf 0c 65 c4 3d 8f f2 ce 3e e2 1d 1c bf
       -0.5834077 0.09589586 0.40419433 -0.609831
000010 13 fb 24 be 77 3d d3 3d f6 0b a8 3e 3e 67 52 be
       -0.16111402 0.10314458 0.32821625 -0.20547196
000020 4d f9 a1 3e
       0.31635514

depthwise_3 f4 [16]
000000 00 00 00 00 00 00 00 00 00 00 00 00 00 00 00 00
       0.0 0.0 0.0 0.0
000010 00 00 00 00 00 00 00 00 00 00 00 00 00 00 00 00
       0.0 0.0 0.0 0.0
000020 00 00 00 00 00 00 00 00 00 00 00 00 00 00 00 00
       0.0 0.0 0.0 0.0
000030 00 00 00 00 00 00 00 00 00 00 00 00 00 00 00 00
       0.0 0.0 0.0 0.0

convolution_1 f4 [16, 1, 1, 1]
000000 bc 10 03 3c 44 bb 0b 3c 70 12 0d bc da 42 03 3c
       0.007999595 0.008528534 -0.008610353 0.008011544
000010 ae 78 c5 bb 04 76 0a bc a4 bd fe 3b bf 97 0d 3c
       -0.006026349 -0.008450989 0.007774072 0.008642136
000020 81 f3 02 3c 68 53 08 bc 64 d3 fb 3b 45 38 f3 3b
       0.007992626 -0.008320667 0.007685112 0.0074224793
000030 51 61 04 3c 98 e1 00 3c 30 8a 03 3c 70 d0 05 3c
       0.008079843 0.007866286 0.008028552 0.008167371

depthwise f4 [1, 3, 3, 16]
000000 f2 9a 1c bc 8e 75 be be ce 77 8d be a0 b4 42 3e
       -0.009558426 -0.37199062 -0.27630466 0.19014215
000010 69 22 d9 be 29 8c 23 3e f1 48 42 3e 4d 18 21 be
       -0.42409065 0.15971436 0.18973137 -0.15731926
000020 14 e5 9d 3e 8e 64 b5 bd e2 b8 51 3d e4 ba 23 3e
       0.30838835 -0.0885707 0.05120171 0.15989262
000030 1d de f3 bd c0 3c 0c bd e8 13 2e be 25 ee 28 3e
       -0.11907599 -0.034237623 -0.16999781 0.16497095
000040 ed 2a 01 3e 4b 20 68 3e 69 90 f7 be 8b b7 99 3d
       0.12614031 0.22668569 -0.48352364 0.07505711
000050 54 21 b5 be 8a 69 ad 39 96 d3 2b be 33 a7 9d 3e
       -0.3537699 0.00033075764 -0.16779932 0.30791625
000060 83 5a 87 3e aa 59 8b 3d 79 e2 66 3d 51 8c 0e be
       0.26436242 0.068042114 0.056368325 -0.13920714
000070 4d bb 9b 3d ca 4d 4b be 8b 31 00 bf 7e 62 a8 be
       0.07604084 -0.19853893 -0.50075597 -0.32887644
000080 21 be a1 3d 15 4b d8 3d 17 6b 3c 3e b0 dd b1 be
       0.07897592 0.10561196 0.18400227 -0.34739447
000090 2b 89 2a bd ff ea 4f 3e e7 db f6 bd 84 8a 41 3d
       -0.04163472 0.20304488 -0.12053662 0.04725124
0000a0 35 a7 10 be fd 0f 13 3f 27 c2 68 3d c5 18 f4 3d
       -0.14126284 0.5744627 0.056825783 0.11918787
0000b0 f9 4b 3f be 4f 1d 04 ba a0 ae 6f bd c8 96 a4 3e
       -0.18681325 -0.0005039768 -0.058516145 0.32146287
0000c0 2f ef 94 3e 97 57 a1 3e 41 ae 24 3e 09 2b d7 3d
       0.29088733 0.31512138 0.16082098 0.10506255
0000d0 b3 71 87 be a8 1e ce bd d6 19 88 3e 10 49 99 be
       -0.26453933 -0.10064441 0.2658221 -0.29938555
0000e0 f7 65 cc be 3a 92 e0 be be 0c d5 3e b9 d1 c8 3d
       -0.39921543 -0.43861562 0.41611284 0.098056264
0000f0 6b ac 93 be e2 3a c5 3d 5a e5 9f bc a4 65 8e be
       -0.28842482 0.09630372 -0.019518543 -0.2781192
000100 41 3b 93 be 2f c8 5b 3d a9 38 fd 3e 46 c5 bb be
       -0.28756145 0.053657707 0.4945729 -0.36673945
000110 4d aa f1 3c 97 48 b8 3e 9b 95 23 be 99 2a b5 be
       0.029500151 0.35992882 -0.15975039 -0.35384062
000120 e1 1c ad 3e 5e 2f 4f 3e c0 ff 32 bd 99 8d 26 bd
       0.33811095 0.20232913 -0.043700933 -0.04066238
000130 b6 ee bf be ee b7 ed 3d cc 8e 85 be 8c 55 b2 3d
       -0.3748681 0.116073474 -0.26085508 0.08707723
000140 a8 68 a7 be c9 1c 00 3c 60 8b e1 bd c7 91 1e bd
       -0.32697034 0.007819363 -0.11012912 -0.038713243
000150 2a 4e 10 bf 73 94 fd be fd 92 9d be 39 86 be 3e
       -0.5636927 -0.4952732 -0.30776206 0.3721178
000160 ea 4e 52 3d 78 c6 f4 bc d5 2b 91 3e a7 30 06 3e
       0.05134479 -0.029879794 0.28353754 0.13104497
000170 9e 5a ca be a7 b0 3a 3e 59 08 9b bd 26 cb a8 bd
       -0.3952226 0.1823145 -0.075699516 -0.082418725
000180 1d f1 b4 bd 81 84 07 3f 72 9c 7e be 8f bb 7d 3e
       -0.08835051 0.5293656 -0.24864367 0.24778579
000190 12 0c 28 3e 50 c4 22 be 22 8b 02 3f c9 a6 9a 3e
       0.16410854 -0.158952 0.5099355 0.30205372
0001a0 55 70 d8 3e 9d 54 0c 3e 03 e2 e5 3d 10 f3 2f 3e
       0.42273203 0.13704152 0.11224749 0.17182565
0001b0 3d 5b 14 3e ba dc 1a be 9e 07 98 be 4e f5 85 3e
       0.1448793 -0.15123263 -0.2969331 0.26163715
0001c0 5f d2 2b 3e de 3a 4c bd 11 b1 b1 be ec 05 51 3e
       0.16779469 -0.049860828 -0.34705403 0.20412415
0001d0 39 47 29 be d6 c9 a6 be 26 a8 91 be e3 76 1a 3e
       -0.16531076 -0.32575864 -0.284486 0.15084414
0001e0 d5 d9 b0 3d 2c 61 07 be 2c a0 9e be 23 ce f6 ba
       0.08635298 -0.13220662 -0.30981576 -0.0018829744
0001f0 4c 64 ca bc 8b 85 d9 3e 30 21 c9 3d c8 c3 39 3e
       -0.024706028 0.42484698 0.09820783 0.18141091
000200 50 3f 52 3d 57 c0 c8 3d da 5c a1 3e 7d e6 05 3e
       0.05132991 0.09802311 0.31516153 0.13076206
000210 04 b8 16 3e de fb 0a be 07 e1 f8 bd e8 61 af be
       0.14718634 -0.13572642 -0.121522956 -0.34254384
000220 45 2d 4e 3d 87 61 8c 3e fa e7 b4 bd a8 cf a7 3e
       0.05033614 0.27418157 -0.088333085 0.32775617
000230 da f1 9e 3e 7b f5 84 be 6e d7 4e 3e 8b 04 c4 bd
       0.31043893 -0.25968537 0.20199367 -0.09571179

convolution_2 f4 [16, 1, 1, 16]
000000 b1 e8 40 3e 88 b7 15 be dc 1d 53 3e 6c 76 8d 3d
       0.18838765 -0.14620793 0.20616859 0.06907353
000010 2e 31 e1 be e5 cc ac 3d ab 74 58 3e e0 5b 38 be
       -0.43982834 0.08437518 0.21138255 -0.18003798
000020 49 a6 d0 bd eb 68 fb 3e e3 02 60 bd 2f e1 a5 be
       -0.101879664 0.49103484 -0.054690253 -0.32398364
000030 92 68 5f bd c2 52 98 bd 17 19 d3 3e 34 e1 32 3e
       -0.054543085 -0.0743766 0.4123008 0.1746872
000040 2f 5b 0c 3f f2 45 1b be cc 37 a8 3d c4 f6 8f be
       0.54826635 -0.15163401 0.082137674 -0.28117955
000050 c4 07 0c 3f 4e 54 b5 bd 6b 9a 25 3e 1b 79 76 3c
       0.5469935 -0.088539705 0.16172187 0.015043522
000060 2b f6 02 3e af 43 a6 bd 64 e9 85 bc 01 ce 07 3e
       0.12789218 -0.08118378 -0.01634664 0.13262178
000070 2a d4 9d 3e 08 c0 e4 3e b8 33 8b 3c be 26 29 bf
       0.3082593 0.44677758 0.016992435 -0.6607474
000080 b3 e6 8d 3e f2 e3 59 3b db 9a 09 3e 3a 18 99 3e
       0.27715072 0.0033247438 0.13437979 0.29901296
000090 ff 7e 89 3e ed e1 37 be c4 d2 09 3f bf c8 23 3e
       0.26854703 -0.17957278 0.5383723 0.15994547
0000a0 2a 8c 64 3e 33 4a b9 3e 91 7a d8 bc 22 36 2e bf
       0.22319093 0.36189422 -0.026425632 -0.6805135
0000b0 a7 41 d2 3e 53 c1 59 be c1 eb 3b bf 06 5b 87 bd
       0.41065714 -0.21265154 -0.73406607 -0.06609158
0000c0 03 fa 8f 3e ff b9 22 3d 0c d6 30 3b 07 a4 8d be
       0.2812043 0.03972816 0.002698305 -0.27664205
0000d0 d1 d1 05 3e 6f 9d c8 3e 34 d0 f1 3d 7f de 22 3e
       0.1306832 0.39182612 0.1180729 0.15905188
0000e0 6f 77 fd bc 0a 69 9b be c4 ab 57 be 01 76 2d bf
       -0.03094074 -0.30353576 -0.21061617 -0.67758185
0000f0 86 34 5d bc 54 e1 d7 3e ca 81 04 3d 32 87 3f bd
       -0.013501292 0.421641 0.03235034 -0.04675979
000100 18 ed 22 3e 8e 77 c3 3e 8e 4b 61 3e d4 0e 21 3d
       0.15910757 0.3817715 0.22001478 0.03932078
000110 14 45 9f be bf 37 d9 3e 57 82 24 3e 20 29 dc bd
       -0.3110739 0.42425343 0.16065346 -0.107500315
000120 39 b7 6b bd a4 a1 29 be 99 b2 e2 3d d2 08 d5 3d
       -0.05754778 -0.16565567 0.11069221 0.10402073
000130 4a f3 74 be e2 1f 38 bd 1d d2 0a bd 10 2e 2a 3e
       -0.23920932 -0.04495228 -0.033891786 0.16619134
000140 67 d2 f6 3d a2 ad 0d bf 79 aa c5 bb dd 05 b1 be
       0.1205185 -0.5534307 -0.006032285 -0.34574786
000150 47 9d 80 bd e3 70 86 be 13 32 02 bf 55 0a 51 be
       -0.06279998 -0.26258 -0.5085766 -0.20414098
000160 4b 5b 95 be 1d 78 d7 3e 84 f7 4d be 4e a0 1b 3d
       -0.29171214 0.42083827 -0.20113951 0.037994675
000170 9f 11 99 3e 1e d2 e4 bb 9b 80 ec 3c 0b d3 dc 3d
       0.29896256 -0.0069830557 0.028869918 0.10782441
000180 91 ea 56 bc cf ff 40 bf 3d 2c fb be b1 06 a0 be
       -0.013117448 -0.7539033 -0.4905719 -0.31255105
000190 97 2e 2c be a9 f5 21 be 70 01 d2 3e ce fd d1 39
       -0.16814648 -0.15816368 0.41016722 0.00040052686
0001a0 5e 98 4a be 10 6a c7 bd ab 80 af bd 8a 0b 35 3c
       -0.19784686 -0.09737027 -0.08569463 0.011050114
0001b0 bb 8e 13 3d ac de 94 be 2c 73 96 bd d0 4e e0 bd
       0.03602479 -0.29076135 -0.07346186 -0.10952532
0001c0 d0 59 75 3d 4c c6 a9 be 8f b4 57 3f 22 0a 0b 3f
       0.059900105 -0.331591 0.84259886 0.54312336
0001d0 62 b0 cb bd ae 92 d7 3e a8 9b c0 be 3e 71 9c 3e
       -0.09945752 0.42104095 -0.37618756 0.30555147
0001e0 49 09 2b bf 61 d1 7c 3d 51 6c c7 3e 15 ec 53 bc
       -0.66811043 0.061723117 0.38949826 -0.012934704
0001f0 7f 14 ed 3e 07 0b 05 3d bf 4e 16 be 65 67 7c 3e
       0.463047 0.03248122 -0.14678477 0.24648817
000200 f0 46 d0 3e 7c 09 ac 3e e1 94 56 bb bf d2 ea bc
       0.4067912 0.33600986 -0.0032742547 -0.028664945
000210 72 10 86 be 7a 89 7e be 9b 9b a1 3e ff 7e 8d be
       -0.26184422 -0.2485713 0.3156403 -0.27635953
000220 94 94 e0 be b0 07 38 bf 66 8c 93 3e 7b d5 58 3e
       -0.43863356 -0.7188673 0.28818053 0.21175186
000230 d1 f5 8e be cc 95 21 be 35 bb d4 3c d2 92 61 be
       -0.27921918 -0.15779799 0.025968174 -0.22028664
000240 bb 2e e9 3c 71 4f eb 3e 98 2a 78 be 85 97 1d be
       0.028464666 0.45959046 -0.24234998 -0.15389831
000250 d6 18 54 be 71 cc f0 bd f9 1f 47 3d 5c 7d a9 3d
       -0.20712599 -0.11757744 0.048614476 0.082758635
000260 2f 4f 76 3e 45 0c 72 3e e8 81 0a bd a6 e1 78 be
       0.24053644 0.23637493 -0.033815295 -0.24304828
000270 e3 d9 59 be dd 61 8f bd 61 1c 52 3e 85 a7 7b be
       -0.21274523 -0.07001088 0.20518638 -0.24575622
000280 23 af 22 3e 14 36 0c bc ef 40 bb be 01 c2 d1 bd
       0.15887122 -0.008557815 -0.36572978 -0.102420814
000290 29 df 6c 3f 60 cf d6 3d 51 ed 99 3d ef 96 29 3e
       0.92528015 0.104887724 0.07515968 0.16561483
0002a0 8b bc 1e be 37 ef 97 3d 07 93 aa 3e 0f 0c 67 3e
       -0.15501611 0.074186735 0.33315298 0.22563194
0002b0 db 5e 9c 3e bd 25 3e be 08 99 1e bf 89 18 9f 3c
       0.3054112 -0.18569084 -0.6195226 0.019420879
0002c0 16 e5 b6 be 3f 49 ab bd 94 eb 44 bd aa 54 e5 3d
       -0.35721654 -0.0836358 -0.048076227 0.11197789
0002d0 ad 26 20 bf f9 96 71 bd aa 3b 5a 3d de 14 f8 bd
       -0.62559015 -0.05898187 0.053279556 -0.12113355
0002e0 01 2c 50 be 93 45 1b 3d ac 50 47 3e 2d b3 96 3e
       -0.20329286 0.037908148 0.19464368 0.29433575
0002f0 09 cf b9 3e 3e b8 9b 3e fc ac f6 bd 34 1f ac be
       0.36290768 0.30414003 -0.12044713 -0.33617556
000300 4c 78 ba be 8f c3 00 3e 83 a5 7a 3e e0 3a b2 be
       -0.36419904 0.125746 0.244772 -0.34810543
000310 5b cd ec 3d 1f e5 aa 3e a5 6d 29 be 16 11 d6 bc
       0.11562606 0.3337793 -0.16545732 -0.026131194
000320 e4 42 17 be ce b5 22 3e bd 86 a6 be 10 1b f8 be
       -0.1477161 0.15889665 -0.32524672 -0.48458147
000330 87 e9 99 3e 9c b6 b1 bd 9f 29 a1 bc 83 a9 21 3e
       0.3006098 -0.08677408 -0.019673167 0.1578732
000340 b7 de ef 3d 65 e1 90 3e 39 59 1b 3d 21 f9 1f bd
       0.11712401 0.28296962 0.037926886 -0.039055947
000350 59 4d 0f 3d e5 51 10 be 9b 17 07 be 80 06 3f 3e
       0.034985874 -0.1409374 -0.13192599 0.18654823
000360 2e 4e f2 3d 00 86 7d 3e 91 30 af 3e 4f bb 62 3e
       0.11831318 0.24758148 0.3421674 0.22141765
000370 b0 7d f4 3d ea ba f0 3d 48 c4 4f 3d cb 86 24 be
       0.119380355 0.11754401 0.050724298 -0.16067044
000380 fd 0a 86 bd 19 d9 85 3d 21 8f 60 3d b6 e9 c6 bd
       -0.065450646 0.06535549 0.054824 -0.097125456
000390 3d 5e 15 bf b2 28 0c be 14 ee ce bd 92 66 3b bd
       -0.5834692 -0.13687399 -0.101040035 -0.045752116
0003a0 75 46 06 be a5 8e 14 3d 2a 52 6c be b0 40 83 3d
       -0.13112815 0.03626885 -0.23078218 0.064088225
0003b0 7a a7 39 be 00 48 e8 bb 32 a1 be 3e c0 29 23 3d
       -0.18130293 -0.007088661 0.37232357 0.039834738
0003c0 23 58 88 bd 88 d3 98 3d 43 a5 8a 3d 8f 1d 7d 3e
       -0.06657436 0.074622214 0.067698024 0.24718307
0003d0 6d 6b a3 3d 11 0d c5 be 2a 9c bf be 31 c6 0e bf
       0.07979474 -0.3848653 -0.3742383 -0.55771166
0003e0 6d 5f 49 3e 0a 61 3f be b9 94 1f 3e d8 25 c7 bd
       0.19665308 -0.18689361 0.15584077 -0.09724015
0003f0 64 1f 67 bd 77 59 2c 3e 15 44 b6 be 49 49 2f be
       -0.05642642 0.16831003 -0.35598817 -0.171178

depthwise_1 f4 [1, 3, 3, 16]
000000 f2 d9 3d 3e e4 75 08 3f 5a 50 89 3e a4 fb 9b bd
       0.18540171 0.53304887 0.26819116 -0.07616356
000010 0b 32 0a bf b3 0e 8d 3e c8 f3 53 3e ec 0b 67 be
       -0.5398261 0.27550277 0.20698464 -0.22563142
000020 70 8a 66 bd 7c f0 ce 3d c8 25 25 bf ed 7f 3a 3d
       -0.056284368 0.101044625 -0.64510775 0.045532156
000030 f3 90 a4 be 63 00 26 bc 92 fb 8d be 47 9c 7e 3e
       -0.32141837 -0.010131928 -0.27730995 0.24864303
000040 b3 1b f7 3d d6 41 d1 bd d8 13 25 3d b4 da 87 3c
       0.1206583 -0.10217635 0.040302128 0.016583778
000050 bf 6e af bd 93 81 3b 3e 64 34 96 3c f1 e8 b7 3e
       -0.08566045 0.18311147 0.018335529 0.35919908
000060 2d 42 72 3e 64 d3 52 3e 5c 3c 99 3d 22 35 c4 be
       0.23658057 0.20588452 0.07482216 -0.38321787
000070 70 c1 59 be 57 38 a0 bd 68 96 87 be c8 56 1f bf
       -0.21265197 -0.07823246 -0.26481938 -0.6224179
000080 f2 d3 2a 3e 26 9c 02 3e da 08 bb 3e 78 dd 5f be
       0.16682413 0.12754878 0.3653019 -0.21861827
000090 ee c8 b7 3e 7e 83 dc 3d 2a c6 29 bd ca 17 e3 bd
       0.35895485 0.10767268 -0.04144875 -0.11088522
0000a0 0f 44 0f 3f 3b 2f 22 3e b5 34 3a be 21 48 80 3e
       0.55963224 0.1583833 -0.18184169 0.2505503
0000b0 63 57 97 be 55 a4 79 3d e1 e8 1f be ea 38 19 3e
       -0.29558858 0.060947735 -0.1561618 0.14963117
0000c0 dc de ac bd 90 0f 16 3f 09 47 5b 3b 45 f8 65 3e
       -0.084409446 0.58617496 0.0033459088 0.22457989
0000d0 fd ab d2 be a0 0d 8c be 33 46 a9 be a3 77 fd be
       -0.41146842 -0.27354145 -0.3306137 -0.49505338
0000e0 de fe 1b 3e e1 57 1a bd 28 a0 ae bc 89 47 d6 be
       0.15233943 -0.037681464 -0.021316603 -0.41851452
0000f0 04 07 6c 3e 4e da 9d be 95 29 d4 bd 82 a0 dc be
       0.23049551 -0.30830616 -0.10359494 -0.43091208
000100 0a d3 5e 3e d6 eb d4 3b 7b af 56 3e 64 10 0f bd
       0.21760193 0.0064978404 0.20965378 -0.03492774
000110 6f bd 1d be eb 54 3a 3e 04 da 4d 3e ac bf 1c 3e
       -0.15404294 0.18196456 0.20102698 0.15307492
000120 39 e1 4c 3e 6e b4 1f 3f 6a 39 64 3e 04 c1 40 3e
       0.2000779 0.6238469 0.22287527 0.1882363
000130 5e 0d 2a bd a1 e0 03 bf 5d bf e1 bd 10 d8 eb bb
       -0.041516654 -0.5151463 -0.11022828 -0.0071973875
000140 55 71 a4 3d 88 6a 33 3d 0c be 50 be 9f 18 9e 3e
       0.08029429 0.043802768 -0.20384997 0.3087816
000150 e6 20 03 3e 15 f1 50 3e 59 50 48 3e 5a 1b d9 be
       0.12805519 0.20404465 0.195619 -0.4240368
000160 8b e8 83 be ac af b9 be b7 9c 43 be dd 6d f9 bd
       -0.25763354 -0.3626684 -0.1910275 -0.12179158
000170 c6 1d bb 3d 38 93 8d bc 96 dd 6a bd ec 26 7c 3e
       0.09136538 -0.017282113 -0.057340227 0.24624223
000180 bc 96 41 3e 02 34 c5 3c 17 b8 3d be ab 56 d8 be
       0.18905157 0.02407265 -0.18527256 -0.42253622
000190 17 07 10 3e 20 03 51 3e 7a fe 1e 3f 06 4c 26 bf
       0.14065205 0.20411348 0.6210705 -0.6495975
0001a0 be 1d 68 3d 5e 49 0e be 16 60 40 bc d3 4b 41 be
       0.05666899 -0.13895175 -0.011741659 -0.18876581
0001b0 36 59 3c be a7 6a a5 3c 97 60 47 be a2 e4 72 be
       -0.18393406 0.020192457 -0.1947044 -0.23720029
0001c0 c1 fc fc bd 03 a1 19 3e 9f 85 98 3d d9 ee 4b bf
       -0.123528965 0.15002827 0.07447361 -0.7966133
0001d0 34 fe 47 3d 7b 2b 2d 3e 2a c6 28 3d a4 33 fd 3c
       0.04882641 0.16911118 0.04120461 0.030908413
0001e0 d9 25 c8 3d dd 1a 10 be 04 cc b9 bd 20 5f cf 3e
       0.09772844 -0.14072748 -0.09072116 0.40502262
0001f0 31 4c d7 bd 7a 99 47 3e 6a e2 74 be 1f bc aa 3e
       -0.10512579 0.1949214 -0.23914495 0.3334665
000200 dd 67 48 3e 8a 7e b7 be 28 57 a4 bd 43 c4 ad 3e
       0.1957087 -0.3583873 -0.08024436 0.33938798
000210 f5 35 32 be b6 f6 81 3e 48 5b 7e be 6b 5a d1 bd
       -0.17403395 0.25383538 -0.24839509 -0.10222324
000220 ae cc 7a 3d a3 3b d8 be 71 5b 2c 3e 07 2f 3d be
       0.061230354 -0.42233 0.16831757 -0.18474971
000230 81 64 26 3f 60 0a 85 3e 27 39 8b 3e 5d 7e 27 be
       0.64997107 0.25984478 0.2719204 -0.16356798

convolution_3 f4 [16, 1, 1, 16]
000000 79 58 87 be 00 3a da bd eb 4a b0 3d fd a9 51 3f
       -0.26434687 -0.10655594 0.086080395 0.81900007
000010 3b ef 96 bd fa 94 77 3e dc 9b 8a bd f5 25 46 3d
       -0.07369848 0.24177924 -0.06768009 0.048376042
000020 bd d4 5a bf 96 45 13 bf 80 9b 14 bf eb 0d e9 be
       -0.8548086 -0.57528055 -0.58049774 -0.4551843
000030 f1 fe 31 3f e5 7b 06 bf 87 3d 47 bf b1 dd e3 3d
       0.69529635 -0.525328 -0.7782826 0.11126269
000040 c5 db ec 3e fd 76 b7 bd bd f2 44 3e 12 ec 82 3d
       0.4626142 -0.08958242 0.19233222 0.06392683
000050 49 c4 14 3f 0a 6b 9d 3e 1b f6 41 3d 3a 15 be bd
       0.5811201 0.30745727 0.047353845 -0.092813924
000060 9c cd ae 3f 62 81 fc be 2a 09 36 3d 81 6a 9f be
       1.3656497 -0.4931746 0.044442333 -0.31135944
000070 66 12 be be fe aa 20 3e ca 18 f5 3e c4 3a 1c 3f
       -0.37123412 0.15690228 0.47870475 0.6102717
000080 73 fe ad bc 4c 7e 79 bf 9e 81 44 bf 21 28 3f bf
       -0.021239495 -0.9745834 -0.7676028 -0.74670607
000090 dc 7b 59 be 91 08 4a 3f d2 02 25 3f f6 99 d4 3e
       -0.21238655 0.7891932 0.6445743 0.41523713
0000a0 a7 46 2e be 77 e8 87 3f 4b 90 c6 be 5f f4 fb be
       -0.17019139 1.0617818 -0.38781962 -0.49209878
0000b0 3d a6 97 bf c7 85 bc bd 0f 90 98 3f d2 11 40 bc
       -1.1847607 -0.092052035 1.1918963 -0.011722999
0000c0 c4 41 7a bf c9 70 c3 bd e8 e2 9e be 43 c3 4f 3f
       -0.977566 -0.095429964 -0.3103249 0.8115732
0000d0 f4 b2 9e bf fb 48 ab 3e 0b 34 6e bf b9 aa c0 bf
       -1.2398362 0.33454117 -0.9304816 -1.50521
0000e0 f3 5f 93 bf c1 7d 3f 3f b0 ab 68 bf ed d0 3c 3f
       -1.1513656 0.7480126 -0.90886974 0.73756295
0000f0 ec c7 06 bf f1 0a 3a 3e 17 37 b2 bf 89 b0 fe bd
       -0.52648807 0.18168236 -1.3923062 -0.12436015
000100 77 27 98 3f c8 89 5d be c2 03 5b bf 9c 88 0f bf
       1.1887044 -0.2163459 -0.8555261 -0.56067824
000110 89 b0 3e 3f 01 f9 b4 be 64 e3 ad 3f 8f 57 d2 3e
       0.7448812 -0.35346225 1.3585019 0.41082427
000120 85 78 86 3c 31 f9 6e bf 80 56 df be 4b 6c d5 3e
       0.01641489 -0.93348986 -0.43620682 0.41684183
000130 6d ba 63 bf 8a f4 c2 bf 21 75 f5 3e 18 7e 2b 3f
       -0.8895634 -1.5230877 0.47940925 0.6698928
000140 9c c9 07 3f 90 54 55 3f a4 70 85 bf 78 cc f4 3f
       0.53042006 0.8333216 -1.0425 1.9124899
000150 f8 46 93 bf ed e7 d9 3f 47 b3 8e bd 26 25 38 bf
       -1.1506033 1.7023903 -0.06967788 -0.71931684
000160 92 b6 7f 3f 33 ed a4 3f ce b8 fe 3d ff 4e 1a be
       0.99887955 1.2884887 0.124375924 -0.15069197
000170 e7 f4 fa bf d4 af 66 3f 35 fe d3 3f 5f 34 43 3d
       -1.9605988 0.9011204 1.6561953 0.047657367
000180 53 4b 8e 3d e7 8e a1 3f 1b 84 c2 3e 9d 82 dc bf
       0.06947961 1.2621735 0.37991413 -1.722736
000190 8e d6 b4 be 26 37 46 3f e1 b5 4f be af 73 02 3f
       -0.35319942 0.774279 -0.20284225 0.5095777
0001a0 8a ef 5b bc e3 4d 3c bd d6 1a 92 3f 91 67 fc bd
       -0.01342381 -0.045972716 1.141444 -0.12324441
0001b0 18 52 af bf 49 2d b7 be 0e e0 13 3f d7 ef 6b 3f
       -1.3696928 -0.35776737 0.57763755 0.9216284
0001c0 16 7d 94 bf c2 0b 62 3f 1b 5c 6c 3f 7d f4 38 40
       -1.1600673 0.8829919 0.9232804 2.8899224
0001d0 56 ed 41 3e 25 72 fe 3e 3e 68 9a be c4 fd 3d bf
       0.18938193 0.4969646 -0.30157655 -0.7421534
0001e0 61 c8 9e be cd aa cf 3c a8 7f 62 3f 13 b2 c7 3f
       -0.31012252 0.025349999 0.8847604 1.5601219
0001f0 53 ef 88 3e df 8a db be da 77 20 bf 7d 58 3e 3e
       0.2674509 -0.42879388 -0.6268288 0.18588443
000200 61 de d7 3e d8 34 a5 bd 84 38 cc be 15 34 4f bf
       0.4216185 -0.0806672 -0.39886868 -0.80938846
000210 76 73 d8 bc 24 71 6c be 29 80 2d 3f 43 64 48 bf
       -0.026422244 -0.23090035 0.6777368 -0.7827799
000220 55 f5 d4 3d 9a 2d 44 3f fe a6 16 bf 13 34 a3 be
       0.10398356 0.7663208 -0.5884856 -0.31875667
000230 04 66 5a bf f5 50 9f be 7d 00 00 be 2b 65 ab 3e
       -0.85311913 -0.31116453 -0.12500186 0.33475623
000240 ba b8 15 bd 06 0a 49 3e c5 96 36 be 38 0e f3 bc
       -0.036553122 0.1963273 -0.17830952 -0.029669866
000250 af 72 e3 3d 33 70 2b 3d f7 db 99 3d 7f 7d 3c bd
       0.111058585 0.04185505 0.07512658 -0.04601812
000260 08 c2 d4 be 0d b3 7c 3d b3 c8 f5 3c ff b5 a6 3e
       -0.41554284 0.061694194 0.030002927 0.32560727
000270 6e 27 3a be 56 30 ef bb 6b eb 76 3e 38 98 72 3e
       -0.18179104 -0.0072994633 0.24113242 0.2369088
000280 3a ef 5b be 7d 12 0d 3e b8 64 c2 bd 2e 4e c3 be
       -0.21477976 0.13776584 -0.09491867 -0.38145584
000290 d1 69 70 3e a4 ba 1c bf 05 fe 78 3d d2 e7 c8 be
       0.23477866 -0.6122229 0.060789127 -0.39239365
0002a0 b2 2d a9 be 0f 78 b1 3d 6b 4b 4b 3e 17 d3 9b bd
       -0.33042675 0.086654775 0.19852988 -0.076086216
0002b0 05 13 ad be 85 83 84 3e 99 1b e0 bd 45 e4 b9 3e
       -0.33803573 0.2588159 -0.10942764 0.36306968
0002c0 e6 0d a2 3d 31 4c f2 3d b0 a9 e2 bd 1c c6 5c 3f
       0.07912807 0.118309386 -0.110675216 0.8623979
0002d0 b3 55 b2 be 47 69 02 3f b9 2b 7e bc c7 4e 2b bf
       -0.34831008 0.5094189 -0.015513354 -0.6691708
0002e0 b4 2d d2 3e 69 d3 15 3e 22 65 07 bf 5a 44 80 3e
       0.41050494 0.14631428 -0.5288869 0.25052148
0002f0 7c a7 5e 3f 86 10 06 3e 8a b8 dc bd 23 9f 85 3d
       0.8697431 0.1309224 -0.107773855 0.065244935
000300 4d eb b7 be 02 f0 79 3f a2 1c f1 be 17 76 6c be
       -0.35921708 0.9763185 -0.47092158 -0.23091923
000310 d0 69 8f 3e be 90 65 3e 83 ff 84 bf f3 6d 73 be
       0.28010416 0.22418496 -1.0390476 -0.23772411
000320 fc a0 0c 3e 2a a9 b4 3e 85 82 03 3f 12 17 2a bf
       0.13733286 0.35285312 0.5137103 -0.6644145
000330 ea 72 91 3e 45 97 95 3d db 23 90 3e a9 55 f3 3d
       0.28407985 0.07304243 0.28152356 0.11881573
000340 80 39 3d be fa a5 25 bd 59 b0 15 bf 19 cb ab bd
       -0.18478966 -0.04044149 -0.5847221 -0.08388347
000350 c2 64 88 be 4e 30 ca 3e b2 f3 cf be 6f dd 1a bf
       -0.26639372 0.3948998 -0.40615612 -0.6049413
000360 6f 1f 8e bd 49 08 eb 3d 0a b5 f8 be 8e 7a 00 be
       -0.06939589 0.1147619 -0.48575622 -0.12546751
000370 59 7b 40 be 05 77 94 3e fa bc 1e 3f ac 7c 21 3e
       -0.18797053 0.28997055 0.62007105 0.15770215
000380 42 a5 7a bf 6c ea 06 bf 10 66 fc 3e 85 e2 0a 3f
       -0.97908413 -0.5270145 0.49296618 0.5425189
000390 e3 f6 22 3f d2 9c d4 3b 16 96 85 bd 7b 55 b2 bf
       0.6365797 0.006488421 -0.06522767 -1.3932337
0003a0 ae 3e 49 3f fb a5 92 3e 81 56 08 3f 6a 01 a4 bd
       0.78611267 0.28642258 0.53256994 -0.08008082
0003b0 12 db ce 3e bd 91 03 be 8b 29 c6 3e f6 78 51 3f
       0.40401512 -0.12848563 0.3870357 0.81825197
0003c0 94 80 59 be 93 72 09 3f 3b c7 8a 3d 68 c8 c0 be
       -0.21240455 0.5369045 0.067762814 -0.37652898
0003d0 8b 31 99 be b2 65 23 3e 7d 2e 37 3d c2 33 aa 3d
       -0.2992061 0.15956762 0.04472207 0.08310653
0003e0 cb 76 aa be d9 b6 9e 3e 6e 3c fe 3e a8 17 cd be
       -0.33293757 0.30998877 0.4965548 -0.4005711
0003f0 41 30 b9 be 42 4d 02 bf cd 84 10 bf 34 13 10 bc
       -0.36169627 -0.50899136 -0.5645264 -0.008793641

depthwise_2 f4 [1, 3, 3, 16]
000000 d1 d0 17 be 0c ba 40 3e b9 13 b9 3e 84 da 58 3e
       -0.14825751 0.18820971 0.3614786 0.21177107
000010 2a de 0f be fd 60 b0 be 53 c7 77 3e b4 f3 22 be
       -0.14049593 -0.34448996 0.2419713 -0.15913278
000020 fb c1 33 bc 35 47 e8 3c 3f 91 e3 3e f8 46 29 be
       -0.0109715415 0.028354267 0.4444675 -0.16530979
000030 27 33 49 3d 30 cd 0b 3f 29 8a cd 3e 21 b2 a2 3e
       0.04912105 0.54609966 0.4014447 0.31776527
000040 a7 bd 9f be 71 84 6f bd c2 b0 06 3e 4e 08 4a bd
       -0.3119938 -0.058475915 0.13153365 -0.049324326
000050 3a f5 25 3e 78 27 60 ba 37 97 87 3d 94 ce 9d 3b
       0.16206828 -0.0008550803 0.06620639 0.004815886
000060 ff 95 3d 3d fc d3 1d 3d 61 36 b5 3d e2 e4 84 3d
       0.046285626 0.038532242 0.088482626 0.064889684
000070 2b 21 eb 3e e9 39 81 be 53 6d 4f be 1f e3 d7 3c
       0.45923743 -0.25239494 -0.20256548 0.026353417
000080 81 4b 1f be 49 93 4b 3e 08 6b ba 3e 8d 20 19 3e
       -0.15556146 0.19880404 0.36409783 0.14953823
000090 07 97 6e be 5e 97 57 3c 91 d4 60 be 60 ad 8c 3e
       -0.232998 0.013158647 -0.21956088 0.27476025
0000a0 47 8d 4a be 2d 83 e2 3e 05 c7 4c 3e d9 59 51 3e
       -0.19780456 0.44240704 0.19997795 0.2044443
0000b0 9a 2c d6 3d 61 0f 05 bc 99 c4 cb 3e 8b 3c 3e 3e
       0.10457726 -0.008121342 0.3979843 0.18577783
0000c0 59 b1 5b be 05 3f 0c be 14 64 e6 bd 29 9b 0c be
       -0.21454372 -0.13695915 -0.11249557 -0.13731064
0000d0 1c 16 94 3d 39 b5 a5 3d 7a 74 08 be 0e 7c 9f bd
       0.072307795 0.08091206 -0.13325682 -0.077873334
0000e0 b6 cc f7 3d ae 2d d9 be 29 13 82 bc a7 38 93 be
       0.120995924 -0.42417663 -0.015878277 -0.2875416
0000f0 24 18 87 3d 4b 3d 9f 3d 48 26 48 be 17 68 d5 bd
       0.06596401 0.077753626 -0.19545853 -0.10420244
000100 1a fd 15 3d f3 e7 76 be ff 79 84 be 2d 31 6e bd
       0.03661833 -0.24111919 -0.25874326 -0.058152366
000110 37 ef 15 be 33 89 42 be cc ce a7 3e 5a 4c ba be
       -0.14642034 -0.1899765 0.3277496 -0.36386377
000120 2a 7c af be 81 39 b6 3e 82 b4 9f 3e c4 72 74 be
       -0.34274417 0.35590747 0.31192404 -0.23871905
000130 47 57 b8 3e 47 89 8f be 3d 16 91 3d ea 00 12 3e
       0.36004087 -0.28034422 0.0708432 0.14258161
000140 cb 56 6e 3e a0 92 a9 bd 8c 72 46 be c0 d5 57 3e
       0.23275296 -0.082799196 -0.19379634 0.21077633
000150 c9 ae 40 be 5c 17 b9 3c b4 a4 6d 3d bc fe 78 3e
       -0.18816675 0.022594146 0.0580184 0.24315923
000160 be db 49 3e 7b 43 84 be b1 26 7f be fe bd f3 bd
       0.19712731 -0.25832734 -0.24917103 -0.119014725
000170 df ba 06 3e 0a 37 81 3e ef fc f6 3c 56 1e 14 be
       0.13157223 0.25237304 0.030149905 -0.14464697
000180 0e 30 77 3e df 60 3d be cb 9a 77 3e 78 4d 04 3e
       0.24139425 -0.18493985 0.24180143 0.12920177
000190 e8 ee 2a be 6e 56 fb bd 1a aa df 3d aa 0a ae 3e
       -0.16692698 -0.122723445 0.10921116 0.3399251
0001a0 a5 71 29 be 66 0e 87 3d 62 7f bc 3e 86 da a5 be
       -0.16547258 0.06594543 0.36815935 -0.32393283
0001b0 b1 28 5b 3e de b8 85 3e 93 a5 0a 3f eb dc 1c be
       0.21402241 0.26117605 0.54158896 -0.15318649
0001c0 a5 2f 34 3e 7e ce b5 bd 9a 1a 48 3e 78 ab 72 3d
       0.175963 -0.08877276 0.19541398 0.059245557
0001d0 84 dd 84 3d e8 e7 b5 3e 30 1d 0b 3d d0 d1 25 3e
       0.06487563 0.35528493 0.033963382 0.16193318
0001e0 1e 0f ea 3e 9e 96 23 3e 9a c2 a2 3e 5c e4 d1 3d
       0.45714658 0.15975425 0.31789094 0.10248634
0001f0 91 00 84 bd 74 ad f3 be 48 79 22 be 2f 19 41 bd
       -0.064454205 -0.47593272 -0.15866578 -0.047143158
000200 44 76 8d be a2 4f 81 bd 73 ce 9a 3e 72 ed 87 3b
       -0.27629292 -0.06314017 0.30235633 0.0041481787
000210 c1 04 8c be 37 f3 2e be 54 b0 a7 3c 8a 6f 7c 3e
       -0.27347377 -0.17084967 0.020469822 0.24651924
000220 a7 b4 1c 3e 3d 72 dc 3e 2f 7a a9 be a6 a3 2b 3e
       0.15303288 0.43055907 -0.3310103 0.16761646
000230 e8 38 a5 3c 87 32 20 bd 90 85 54 3e bd 4e cb 3e
       0.020168737 -0.039110687 0.20754075 0.3970851

convolution_4 f4 [16, 1, 1, 16]
000000 d5 69 14 3f ec 18 b8 be cf b6 0c 3f 06 18 fa bd
       0.57973987 -0.35956514 0.54966444 -0.12211613
000010 37 14 ac be b7 d2 10 3f 5d b5 4f 3f f2 f4 13 3e
       -0.33609173 0.56571525 0.81136113 0.14448908
000020 4e f5 fb 3e 20 35 2c 3f 68 4c e9 3f 59 7a 4e 3e
       0.4921059 0.6726856 1.8226442 0.2016386
000030 eb 62 09 3f b3 90 51 3f d6 15 59 3f 78 26 9d 3f
       0.5366656 0.8186142 0.84798944 1.2277365
000040 1f aa fd 3e 33 76 44 bf 1a 6d 56 3f 9a 26 08 3e
       0.49543855 -0.7674286 0.83760226 0.13295975
000050 db 07 f9 be e7 b9 40 3e 13 12 1e bf df 4e c8 3b
       -0.48638806 0.18820916 -0.6174633 0.006112918
000060 9d 35 8e bf 5b 3d 47 bf b4 e4 5c 3f 28 87 9d bd
       -1.1110111 -0.77827996 0.86286473 -0.07691795
000070 9e 95 85 bf 86 0f 95 bf 05 5e b8 bd 9b 10 8a 3f
       -1.0436285 -1.1645362 -0.09002308 1.0786318
000080 68 71 21 3f 45 d8 37 3f 93 15 8f bf 40 5c 1a bf
       0.6306367 0.71814376 -1.1178459 -0.6029701
000090 af 0a aa 3e c3 3c 91 3f 39 67 a6 3f a4 58 36 bf
       0.33211276 1.1346668 1.3000251 -0.71229005
0000a0 c8 0e ca 3e 72 36 87 3f 27 19 d2 bf 4e 2e 38 3f
       0.39464402 1.056349 -1.6413926 0.71945655
0000b0 c7 64 aa 3f 88 35 ab 3f 43 cf 9f 3f e3 bb 8d 3f
       1.3312005 1.3375711 1.2485126 1.1072963
0000c0 96 f2 89 3f 2a ac b9 3e 85 67 d4 bd 2d 7d 6c bc
       1.0777156 0.36264163 -0.10371307 -0.014434141
0000d0 c9 a4 7b be 23 68 3c bf a0 26 a7 bf 5b 6e 90 bf
       -0.2457458 -0.735964 -1.3058662 -1.1283678
0000e0 22 0f ed 3e 5a 34 3b 3f ee 81 0a be 87 4b 9f be
       0.46300608 0.7312676 -0.13526127 -0.3111231
0000f0 29 86 49 bf 39 2c 6d 3f 3e 93 04 40 cd f1 07 3f
       -0.7872034 0.92645603 2.071487 0.53103334
000100 29 37 9c be 8b 12 0f bf df 61 92 3e 0f b3 8e 3d
       -0.30510834 -0.5588767 0.28590295 0.069677465
000110 73 2a 8d bd 44 46 aa 3d a7 5e 8d 3d 9a 06 37 bf
       -0.06892862 0.08314183 0.06902819 -0.7149445
000120 f4 fb 5c 3e b6 8b 90 be 80 94 d9 bd 7b 89 08 bf
       0.21580487 -0.2823159 -0.10624027 -0.5333478
000130 cb 35 8a be e5 98 9b bd ad b3 f7 3b c0 4c 58 bd
       -0.26994166 -0.07597522 0.007559261 -0.05280757
000140 bd 7b 2b bc 45 67 11 be 98 0b 8b bd b3 ec 72 bd
       -0.010466513 -0.1419955 -0.06789321 -0.059307765
000150 62 2c e8 3f fe 3f e4 3d fa c9 93 be 28 de 6d bf
       1.8138545 0.11145018 -0.28865033 -0.9291711
000160 38 b7 09 3f be df 90 3e c9 1c 8e 3f 25 46 e9 bc
       0.53795195 0.28295702 1.1102535 -0.02847583
000170 79 bd ca 3c 75 86 d1 bd c8 b9 ee 3e b0 c6 4c be
       0.02474855 -0.10230724 0.46626115 -0.19997668
000180 64 30 70 bf 24 6a b8 3e 91 1e 0a 3f 88 77 81 3c
       -0.9382384 0.3601848 0.5395289 0.015804067
000190 aa 65 06 40 bd 91 5d bf f2 8a 38 3f 98 da fb bf
       2.099955 -0.86550504 0.72087014 -1.9676085
0001a0 af e9 b1 3f b0 6b 84 bf e5 de 2d bf 0a bf 02 3f
       1.389944 -1.0345364 -0.67918235 0.5107275
0001b0 85 02 db 3f 80 03 75 3f 79 74 8d be 9c f5 d0 be
       1.7110144 0.95708466 -0.27627924 -0.40812385
0001c0 c9 7a 66 bf 1c 19 69 3f f5 4e 9c be 7c da b8 bf
       -0.90031105 0.9105394 -0.3052899 -1.4441676
0001d0 13 be 21 3f 5a 5a 11 3f 68 72 cd 3e d4 bb 62 bf
       0.63180655 0.5677849 0.40126348 -0.8856785
0001e0 0d 20 43 3e 95 8c d0 be ec 21 a0 3f d4 50 39 bf
       0.19055195 -0.40732256 1.2510352 -0.7238896
0001f0 ec ec 29 be 84 84 99 be ea 8b 31 be af 43 f4 be
       -0.16594285 -0.29983914 -0.17338529 -0.47707888
000200 58 e1 de be b4 2e 3f 3f 80 fc 52 3f e7 c4 83 3e
       -0.435313 0.7468064 0.82416534 0.25736162
000210 9f db 56 3e b8 6f 22 bf cd 4e 12 3e 9e 96 3f 3f
       0.20982216 -0.6345172 0.14287873 0.748392
000220 0b fa 63 3e 05 0c af 3e 39 b8 05 be 52 fc 82 3f
       0.22263353 0.34188858 -0.13058557 1.0233252
000230 a4 6e e3 3d 15 26 5d bf d8 a0 6b bc e4 13 cd 3c
       0.111050874 -0.86386234 -0.01438161 0.025033899
000240 1e 57 e9 3f 4b 9b 90 3e 38 34 e1 3f 9c 41 69 bf
       1.8229711 0.2824348 1.7594061 -0.91115737
000250 82 f2 8e bf 7c 3a c9 bf 13 79 99 be e0 ea 01 bf
       -1.1167758 -1.5720973 -0.29975185 -0.50749016
000260 f3 b6 13 c0 b0 8a e6 bf 49 00 61 bf ba 59 c2 bc
       -2.3080413 -1.8011074 -0.8789106 -0.023724426
000270 87 2c 82 be 58 5b 81 3d 7a 72 c6 3e 9d c0 9e 3f
       -0.25424597 0.063162506 0.38759214 1.2402531
000280 89 f9 66 3f 38 ff 6d bc 51 98 e1 3e f0 51 e3 be
       0.9022451 -0.014526181 0.4406152 -0.4439845
000290 49 34 17 be 51 63 fe 3e 81 8b 06 be 7a 63 77 bf
       -0.14766039 0.49685147 -0.13139154 -0.96636164
0002a0 5e 6a e6 3c 85 fd ac be 4d c0 00 bf d1 a3 95 3f
       0.028126892 -0.3378717 -0.5029343 1.1690618
0002b0 cf 5e 38 3f a7 84 8b bc cc cb 6c 3f 49 87 5f 3f
       0.72019666 -0.017031027 0.9249847 0.87315804
0002c0 ff a7 21 3f f9 59 0a bf 5a 0e 13 40 2e 8c 97 3f
       0.63146967 -0.5404354 2.297751 1.1839654
0002d0 c9 d7 8d bf bd 45 14 bf e1 92 83 bf 55 87 d3 3f
       -1.1081477 -0.5791891 -1.0279199 1.6525675
0002e0 10 f0 09 c0 07 53 15 3f 10 ce 5e 3d e2 60 75 3f
       -2.1552773 0.58329815 0.054395735 0.95850956
0002f0 d3 fb 61 bf 12 77 c7 3e f9 60 06 bf 72 81 6c 3f
       -0.8827488 0.3895803 -0.5249172 0.9238502
000300 70 c2 bf 3e 4a c4 8d 3e e0 b8 80 bf 24 7f 44 3f
       0.37453032 0.2768882 -1.0056419 0.767565
000310 98 4a 00 bf fc 01 34 3f 34 ed 7d 3f 02 34 e7 be
       -0.5011382 0.7031553 0.9919007 -0.45156866
000320 49 91 71 bf 4b 40 50 40 45 40 b6 3e 81 f3 80 be
       -0.9436231 3.2539241 0.3559591 -0.2518578
000330 72 cc cb bf 8a 73 90 bf a1 6c 00 c0 3a 11 31 bf
       -1.5921767 -1.128526 -2.0066302 -0.6916691
000340 bc b8 15 3f e7 7f 42 bf 5d 78 3a bf 2f 65 53 3f
       0.5848501 -0.75976413 -0.7283991 0.8257627
000350 dc 06 ba 3f 5a c5 ed 3e 0d a9 e1 3e fe f8 7b bf
       1.4533343 0.4643963 0.44074288 -0.98426807
000360 d8 5a 7a be ea 07 1e bf 78 19 1c 3f 1e 3d fa 3e
       -0.24448717 -0.61730826 0.6097636 0.48874754
000370 5f c9 de bd 70 ce 52 3f 8a 69 ba bf 6f 07 11 be
       -0.10878252 0.8234625 -1.4563458 -0.14162992
000380 31 f7 54 3e 81 9f 15 3f e9 4f b9 3e d4 e3 c1 be
       0.20797421 0.5844651 0.3619378 -0.37869132
000390 9c c0 7a be ca 1b a3 3e ee 8c 7b 3e e3 f6 4f 3e
       -0.24487537 0.3185714 0.24565479 0.20309024
0003a0 f8 38 13 3e 2e 7f 73 3e 87 14 74 be 2c a9 0d 3f
       0.143772 0.23778984 -0.23835956 0.5533626
0003b0 43 1e 01 bf 4d db 9a 3e 58 4f eb be c1 93 08 bf
       -0.504368 0.30245438 -0.45958972 -0.53350455
0003c0 87 55 56 be fc 23 b4 3e ba d9 0a bf 03 83 0b 3e
       -0.20931064 0.35183704 -0.54238474 0.13624196
0003d0 6e a4 9d 3f 1a 3f 03 40 7f 19 13 bf 71 93 25 be
       1.2315805 2.0507264 -0.5746078 -0.16169526
0003e0 76 ef ee 3e c4 69 8c bd a7 7a 58 bf 36 ec 8e be
       0.4666707 -0.06856111 -0.8456215 -0.2791459
0003f0 20 2d 71 3f a8 63 4e 3f f3 4e ac 3f d4 b1 d6 bd
       0.9420948 0.80620813 1.3461593 -0.10483137

depthwise_31 f4 [1, 3, 3, 16]
000000 11 39 90 be 25 7e ee 3d f5 af f5 3e 8d 4f 5c 3e
       -0.28168538 0.11645154 0.47985807 0.21514721
000010 fd 35 c7 bc 61 1a 98 3d 83 a2 44 3e 74 3e 31 be
       -0.024317736 0.074269064 0.19202618 -0.1730898
000020 7e 36 51 be 10 8c d2 bd ac 23 5d be ef 57 3b 3e
       -0.20430943 -0.10280621 -0.21595639 0.18295263
000030 34 58 0f bf c4 b0 73 bd 70 b6 6b 3c 1c 11 9f bd
       -0.5599396 -0.05949475 0.014386758 -0.07766935
000040 4f 6c 00 3d bf 0e 84 3d 25 cf ca be 71 7d 69 bd
       0.03135329 0.06448125 -0.39611164 -0.057004396
000050 f3 ce ad be 90 a6 1f be c4 e9 d6 bd 31 81 64 3c
       -0.33946952 -0.15590882 -0.10493806 0.013946817
000060 30 29 28 3d 80 3a 37 be 9c 5c e6 3d 72 a2 9d 3d
       0.041054904 -0.1789341 0.112481326 0.076969996
000070 a9 03 79 bd be 91 26 3e 77 f6 56 3e 74 d7 18 3d
       -0.060794506 0.16266534 0.20992456 0.037314847
000080 a9 d6 df 3d 2a 75 28 bc 52 af 14 3f 57 26 63 3d
       0.10929615 -0.01028184 0.5808002 0.055456486
000090 68 3a 26 3e d7 4d c2 3e 20 f7 15 bd 3a 22 a1 be
       0.16233218 0.37950012 -0.03661263 -0.31471425
0000a0 d3 33 82 be cc 66 34 bb f3 37 4e bc 1e 87 33 3e
       -0.25430164 -0.0027527092 -0.0125865815 0.17532012
0000b0 f9 b2 de bd 16 92 13 b9 70 62 b2 3e 2f b6 07 be
       -0.1087398 -0.00014073434 0.34840727 -0.13253091
0000c0 de 31 6e be ee fc 03 3d 9d f9 bc be 09 7c 28 bd
       -0.2326121 0.032223634 -0.3690919 -0.041133914
0000d0 5a 36 1d bd 12 af b5 3d f5 fe 18 bf 2b 3b 59 be
       -0.03838191 0.08871283 -0.59764034 -0.21213977
0000e0 9c 90 d3 3d 07 32 f3 bd 4e 8a fe bd a2 55 2d 3e
       0.103303164 -0.11874776 -0.12428723 0.16927198
0000f0 2c 05 f6 3e 15 14 9b 3e 4c 8c 42 3e 6b 5e 12 3e
       0.4805082 0.3028876 0.18998832 0.1429383
000100 58 b2 67 bd af 97 21 be dd 64 d5 bd f1 04 bb 3d
       -0.056566566 -0.15780519 -0.10419629 0.09131802
000110 7d e0 fe bd 2e b9 83 3d 3a 09 04 3f 75 ca b1 3c
       -0.124451615 0.064318046 0.5157658 0.021702984
000120 18 d3 e4 3c 50 70 e0 3d 15 7a d1 3d 69 84 fa bd
       0.027932689 0.10958922 0.102283634 -0.122322865
000130 ff 2d a3 3e 74 7d ce bd 70 09 b1 bd 53 52 75 3e
       0.3187103 -0.10082522 -0.08644378 0.23957185
000140 5e 3e 0c be 6b 62 87 be 5f be bd be 13 92 92 bb
       -0.13695666 -0.26442274 -0.37059304 -0.00447298
000150 44 f9 2c be e3 f1 06 be e6 a0 2b be f4 0d e2 bd
       -0.16891962 -0.1317821 -0.16760597 -0.110378176
000160 5f c8 cf bd 33 eb da bd 49 c6 37 3d 8e 25 d9 bc
       -0.1014564 -0.10689392 0.044866834 -0.026507165
000170 6e 04 d4 bd 78 57 77 3e 78 ec a6 3c 6d bb f9 3d
       -0.103524074 0.2415446 0.020376429 0.12193952
000180 5c 61 08 bd 72 73 a2 bd 6a ee b7 3e 85 ef 05 3e
       -0.033295974 -0.07932176 0.35924083 0.1307965
000190 ae 3f 0f 3d c0 ce df 3d 5d cc 29 3e 13 89 bb bd
       0.03497284 0.10928106 0.16581865 -0.09157004
0001a0 7c bf 8d be c7 af 5b bd e8 66 27 be 83 92 1b be
       -0.27685153 -0.05363443 -0.1634785 -0.15192609
0001b0 14 ad e2 be a1 ce 4f 3e 39 c6 11 3e 8d 30 54 be
       -0.44272673 0.20293666 0.14235772 -0.20721646
0001c0 3e cf 61 bd e6 e5 13 be bb 2e 65 be ce b3 05 be
       -0.055129282 -0.14443168 -0.22381108 -0.13056871
0001d0 39 bd 8f 3e 4a 31 80 3e 1d 71 d9 bc 39 d2 11 bd
       0.28074053 0.25037605 -0.026543194 -0.035600875
0001e0 5f 02 82 3c c8 bb f2 3d 98 b0 30 be 61 c7 ca 3d
       0.015870271 0.11852223 -0.17254865 0.0990131
0001f0 ad f3 0f 3e 01 7a 5d 3d d0 c7 8f 3d e6 ce 89 bd
       0.14057799 0.05407143 0.07020533 -0.06728916
000200 d8 e4 27 be 14 e2 60 3e e1 c5 f0 3e 54 ed 16 3e
       -0.1639589 0.21961242 0.4702597 0.14738971
000210 a2 df 50 3e 0b 8f 84 3e bf 7e f9 ba 5a d1 9c be
       0.20397809 0.25890383 -0.0019034966 -0.30628473
000220 15 55 ca bd 45 e1 e7 bd 2a 66 0b be a5 e0 e7 3d
       -0.09879509 -0.11322264 -0.13613191 0.113221444
000230 41 02 59 be 34 d7 0d 3e de 1a b2 3e 29 0c 25 be
       -0.21192266 0.13851625 0.34786123 -0.1611792

convolution_5 f4 [3, 1, 1, 16]
000000 e2 94 23 c1 54 bf 87 c0 90 f5 a5 c1 f3 16 4f c1
       -10.223848 -4.2421055 -20.744904 -12.943103
000010 e3 69 27 3f f5 20 dc 41 36 50 94 c2 83 ae 4a 41
       0.65395945 27.516092 -74.15666 12.667605
000020 21 40 b4 c1 c5 74 93 c1 09 5c 96 41 e7 4f 65 c1
       -22.531313 -18.432016 18.794939 -14.332007
000030 a1 8e 29 41 4d 7c 40 41 bb f9 bb c1 7f 75 fe c1
       10.5973215 12.030347 -23.496939 -31.807371
000040 a1 2d c5 40 d8 54 ab c0 e2 1d 0a c0 1c fc b1 c0
       6.16182 -5.354107 -2.158074 -5.562025
000050 5e e3 88 c0 81 6c aa 3f c7 49 8b bf 97 71 b9 41
       -4.277755 1.3314363 -1.088189 23.180464
000060 ea 8a 82 41 d1 1e 24 40 4a b5 a7 40 1b 32 a8 40
       16.31783 2.564381 5.24088 5.2561164
000070 62 9f 7e c2 4f a1 c6 c0 bd 05 fa 41 f8 97 ef 3f
       -63.655647 -6.207191 31.252802 1.8718252
000080 01 04 da 3f 68 f4 09 c0 71 87 10 43 37 35 40 41
       1.7032472 -2.1555424 144.52907 12.012992
000090 9f 8d 41 41 af 3e ee c1 a9 bf 90 40 11 df 08 c2
       12.097075 -29.780607 4.523396 -34.21784
0000a0 20 b0 ba bf 87 f8 f3 40 93 bb c9 c1 6a 3a ac 3e
       -1.4584999 7.624088 -25.216589 0.33638316
0000b0 32 15 f2 40 ff d8 14 c0 27 6a 38 c1 72 d8 33 c0
       7.5650873 -2.3257444 -11.525916 -2.8100858
